Part-2/Lab 2 - Neural Networks/2gram.pth (torch, 56762 bytes, 5 tensors)

embeddings.weight f4 [79, 10]
0	0x3f234978	0.6378398
1	0x3fe16e83	1.761185
2	0x3e3d9284	0.18512923
3	0x3fa1b5f1	1.2633649
4	0xbe94bfa8	-0.29052472
5	0xc0039e43	-2.0565345
6	0x3f116e62	0.56809056
7	0x3fd5288a	1.6652997
8	0xbf8cdfe6	-1.1005828
9	0x3e914a3a	0.28376943
10	0xbfc9339b	-1.5718874
11	0x3fd48633	1.6603454
12	0xbdfe4cc8	-0.124169886
13	0xbe450e41	-0.19243719
14	0xbe7a80a6	-0.24463138
15	0x3e05d416	0.13069186
16	0xbcd9cff8	-0.026588425
17	0xbf9e4a8e	-1.2366502
18	0x3eb81533	0.35953674
19	0xbe850c15	-0.2598578
20	0x3eca96dc	0.39568222
21	0x3f752649	0.95761544
22	0x3f90720c	1.1284804
23	0x4002f043	2.0459144
24	0x3e9a1441	0.30093578
25	0x3f8d26fe	1.1027524
26	0xbfeda67d	-1.8566433
27	0x3ec59bfb	0.38595566
28	0xc019c1bd	-2.4024498
29	0x3ded8edd	0.11599515
30	0xbebe0550	-0.37113428
31	0xbf40d0d8	-0.7531867
32	0xbdc59578	-0.096476495
33	0xbf12ed41	-0.5739327
34	0x3de10586	0.10987382
35	0x3f91c33f	1.1387709
36	0xbfd1e9ea	-1.639951
37	0x400e42a7	2.2228181
38	0xbf5ce73d	-0.8629034
39	0x3ffa7c73	1.9569229
40	0x3def7af6	0.11693375
41	0xbee4cee5	-0.44689098
42	0x3e9346fc	0.28765094
43	0xbf4272e6	-0.7595657
44	0xbf8ddab2	-1.1082366
45	0x3f56646b	0.83746976
46	0xbf41e020	-0.7573261
47	0xbfcce949	-1.6008693
48	0x3eda756c	0.4266771
49	0x3ef6b8f5	0.48187986
50	0x3f02411d	0.50880605
51	0xbb9cbf9c	-0.004783584
52	0xbfbebede	-1.4901998
53	0xbee2914f	-0.44251487
54	0x3e91d29b	0.28480992
55	0x3ecf45b2	0.4048286
56	0xbe2adbfe	-0.16685483
57	0x3f31f177	0.6950907
58	0xbebc9f8a	-0.3684047
59	0x3f9873f1	1.1910383
60	0xbfc0d641	-1.5065385
61	0xbf8e68dd	-1.1125752
62	0xbf854e38	-1.0414495
63	0x3dc0847a	0.09400268
64	0x3ee229ea	0.44172603
65	0x3efcd3f6	0.49380463
66	0x3f2a8f80	0.66625214
67	0xbf29d52a	-0.6634089
68	0x3f412a27	0.75454944
69	0xbe7180bc	-0.23584265
70	0xbe6a58fb	-0.22885506
71	0xbf13eabb	-0.57780045
72	0x3f2572ad	0.64628106
73	0x3ee31d96	0.4435851
74	0x3eb39954	0.35077918
75	0xbeee0f75	-0.46496168
76	0x400323c8	2.049059
77	0x3eda4946	0.42634028
78	0x3faa8514	1.3321862
79	0xbf16ad67	-0.5885834
80	0x3eae881c	0.34088218
81	0x3f7f3510	0.9969034
82	0xc00f3f64	-2.238244
83	0xbe97757c	-0.2958182
84	0xbf15869f	-0.5840854
85	0xbf47457b	-0.77840394
86	0xbea07520	-0.3133936
87	0xbfaf154d	-1.3678375
88	0xbeab8ebb	-0.33507332
89	0xbf62c233	-0.88577574
90	0xbf6177ee	-0.88073623
91	0xbf5bece2	-0.8590833
92	0xbf910cd1	-1.1332036
93	0xbf005017	-0.5012221
94	0x3fb7938d	1.4341904
95	0xbf36c7e9	-0.7139879
96	0x3f907ebf	1.128868
97	0x3f8c83eb	1.0977758
98	0x3faf6d2b	1.370519
99	0xbe00f13c	-0.12592024
100	0x400717cb	2.1108272
101	0xbf58bb76	-0.8466104
102	0x3ed0fb8a	0.4081691
103	0xbf0f1dff	-0.55905145
104	0x3fbb23ac	1.4620261
105	0x3f8b3936	1.0876834
106	0x3e07ddf6	0.13268265
107	0x3f9c0642	1.218941
108	0xbf6d6bd4	-0.9274266
109	0xbe59f3cf	-0.21284412
110	0xbfaca53a	-1.3487923
111	0xbe8aaa73	-0.27083167
112	0x3efe65a6	0.49686927
113	0xbe4b6790	-0.19863725
114	0xbf3b224f	-0.73099226
115	0xbf9c8877	-1.2229146
116	0x3e87d032	0.26526028
117	0xbf33901a	-0.70141757
118	0x3e8b5961	0.27216628
119	0xbf44ea33	-0.7691986
120	0x3e1a3d4c	0.15062445
121	0x3fde7778	1.7380209
122	0x3eed7b52	0.46383148
123	0x3e1f3426	0.15547237
124	0x3f9fad81	1.2474824
125	0x3de2cc8c	0.110741705
126	0xbea3333c	-0.31875026
127	0x3ef7ec82	0.4842263
128	0xbfdc2507	-1.71988
129	0xbe940b57	-0.28914902
130	0xc009aa0e	-2.1510043
131	0xbf24324e	-0.6413926
132	0x3e79d96a	0.24399343
133	0xbf0d0021	-0.5507832
134	0x3ea7ad32	0.32749325
135	0xbf98a47b	-1.1925195
136	0x3f03ad34	0.5143616
137	0xbe7f604f	-0.24939083
138	0x3ffbd05d	1.9672962
139	0xbe1a4ce0	-0.15068388
140	0xbef0a56e	-0.47001213
141	0x3dc7ac69	0.097496815
142	0x3dd1dc8c	0.10247144
143	0xbe95adf0	-0.29234266
144	0x40042293	2.0646102
145	0x3eab1ea4	0.33421814
146	0x3faf8d0e	1.3714921
147	0xbf8a7dd5	-1.0819651
148	0xbe89058f	-0.26762053
149	0xbf38ab6e	-0.7213658
150	0xbfbdb2af	-1.4820155
151	0xbe9e598c	-0.30927694
152	0x3f1574a2	0.5838109
153	0x3e2f64e3	0.17128329
154	0x3f58d5b1	0.8470107
155	0xc015be00	-2.3397217
156	0xbf935539	-1.1510383
157	0xbef485f1	-0.4775844
158	0x3fa84a2e	1.3147638
159	0x3f7ddadc	0.9916208
160	0x3e450171	0.19238831
161	0xbf39a9d4	-0.7252476
162	0xbfaee9ba	-1.3665078
163	0x3d0f0bdb	0.034923416
164	0xbdc2c307	-0.09509855
165	0xbfd64f71	-1.6742994
166	0xbea1bf8d	-0.31591454
167	0xbfc240b4	-1.5175996
168	0x3dc9fe59	0.09862966
169	0x3f1f10f5	0.6213525
170	0x3dfe2ee4	0.124112874
171	0xc02542ea	-2.582209
172	0x3f42c39e	0.7607974
173	0x3f719d82	0.9438096
174	0xbfb921e5	-1.4463469
175	0xbf5570ea	-0.8337542
176	0x3eca2920	0.394845
177	0x3fb53b4f	1.4158725
178	0x3de78095	0.11303822
179	0x3fe3ca02	1.7796023
180	0x3f0a8ecc	0.5412414
181	0x3f26824c	0.6504257
182	0x3eb359af	0.3502936
183	0x3f37b711	0.7176371
184	0xbf95af4d	-1.1694123
185	0x3e48150c	0.19539279
186	0x3e3eff84	0.18652159
187	0xbe392401	-0.1808014
188	0xbe921736	-0.28533334
189	0x3f1c2871	0.6099921
190	0xbe12f6a4	-0.14351898
191	0xbdc3f29f	-0.09567761
192	0xbe754166	-0.23950729
193	0x3ed2f5f4	0.41203272
194	0x3ff8ea54	1.9446511
195	0xbf89dd1c	-1.0770602
196	0xbeb6277f	-0.35577008
197	0x3ef414ec	0.47672212
198	0x3f133e83	0.5751726
199	0x3ed6b838	0.41937423
200	0x3f056f15	0.5212262
201	0xc0280318	-2.6251888
202	0xbebb1e3c	-0.36546504
203	0x3fa1613c	1.2607799
204	0xc02b1994	-2.6734362
205	0x3c938567	0.018007947
206	0xbc65d38d	-0.014027488
207	0x3ea3e5d1	0.32011274
208	0xbfa81476	-1.3131244
209	0xbef9ae05	-0.4876558
210	0xbe9ab9ad	-0.30219784
211	0xbf3c294e	-0.73500526
212	0xbfc82fc5	-1.5639578
213	0xbde8be31	-0.11364401
214	0xbf0a6f23	-0.5407583
215	0xbedc99ba	-0.43086034
216	0x3e8ead7d	0.27866736
217	0x3f533517	0.82502884
218	0x3f52e987	0.82387584
219	0x3d0dd845	0.03463008
220	0xbf0f65e4	-0.5601485
221	0x3f59dfed	0.8510731
222	0x3fa79e80	1.3095245
223	0xbf5d6acf	-0.864911
224	0xbed7e506	-0.4216692
225	0xbeec87f5	-0.46197477
226	0x3f86a626	1.0519454
227	0xbfd46085	-1.6591955
228	0xbf145e6d	-0.5795658
229	0xbee00945	-0.43757072
230	0xc00235af	-2.0345266
231	0x3e5ccc41	0.21562292
232	0xbcaa4562	-0.020785037
233	0x3f3258e5	0.6966689
234	0x3fe387c4	1.7775807
235	0x3fcca6da	1.5988419
236	0xbeec1bbd	-0.46114913
237	0x3e23b719	0.15987815
238	0x3d84261b	0.064525805
239	0xbef31396	-0.4747588
240	0x3e82155a	0.25406915
241	0x3f0fe07d	0.56201917
242	0xbfd53de3	-1.6659511
243	0xbeead753	-0.45867404
244	0xbf104f7f	-0.563713
245	0x3f9c5532	1.22135
246	0xbf3e4daa	-0.74337256
247	0xbf512075	-0.8169015
248	0xbf40b56e	-0.7527684
249	0xbfc965ee	-1.5734231
250	0xbf07595a	-0.52870715
251	0xbed13794	-0.40862715
252	0x4039f695	2.9056752
253	0xbf16472d	-0.58702356
254	0xbffea5c4	-1.9894338
255	0xbeffaa0a	-0.49934417

linear1.weight f4 [128, 20]
0	0x3d075f49	0.033049855
1	0xbe1b58f9	-0.15170659
2	0x3e0a597a	0.13510695
3	0xbdb2f98c	-0.087390035
4	0xbde93088	-0.1138621
5	0x3e2501f5	0.16114028
6	0x3e96ca56	0.29451245
7	0x3d270524	0.040776387
8	0x3e024c28	0.12724364
9	0x3e1611d5	0.1465524
10	0x3c680cd7	0.0141632175
11	0x3e3e355b	0.18575041
12	0x3c1586ef	0.009126409
13	0x3db49a78	0.08818525
14	0xbdb89faa	-0.090148285
15	0x3da98908	0.0827809
16	0xbdf88e26	-0.12136488
17	0x3e07a3af	0.13246034
18	0xbe9945c6	-0.29936045
19	0x3cd53cf2	0.026030038
20	0xbd33fd84	-0.043942943
21	0xbda338d0	-0.079698205
22	0x3e9efa8a	0.3105052
23	0x3e22bdf3	0.15892772
24	0x3e0f3d30	0.13988185
25	0xbe906ca9	-0.282079
26	0xbe7f9e7f	-0.24962805
27	0xbec3d863	-0.38251027
28	0x3e3c53f2	0.18391398
29	0xbdcf7c8b	-0.101311766
30	0x3e382de7	0.1798626
31	0x3ddc3e12	0.107540265
32	0xbc3e4e86	-0.011615401
33	0xbeba2516	-0.3635642
34	0x3c828ea4	0.015937157
35	0x3e439aa4	0.1910196
36	0x3dfbf3de	0.12302373
37	0xbe895171	-0.26819947
38	0xbc0e1a06	-0.008673197
39	0x3cb5359b	0.022120288
40	0x3c5b6916	0.013391754
41	0x3e861333	0.26186523
42	0x3e2f5b8e	0.17124769
43	0x3e6b1a37	0.22959219
44	0x3e144ccc	0.1448242
45	0x3e51ad4a	0.20476261
46	0xbe969e0f	-0.29417464
47	0x3e84a29f	0.2590532
48	0x3d4467df	0.04795062
49	0x3e952a30	0.2913375
50	0x3dd8ab64	0.10579565
51	0xbe8421ad	-0.25806943
52	0xbe031732	-0.12801817
53	0xbd00c416	-0.031437002
54	0xbd56bf40	-0.052428484
55	0xbe0e6b2f	-0.13908075
56	0x3e774e3a	0.24150935
57	0x3ea8b870	0.32953215
58	0xbe1def33	-0.15423279
59	0x3e0af6b2	0.1357067
60	0x3ccf7cc4	0.025328048
61	0xbe96ecfe	-0.29477686
62	0xbe961da0	-0.29319477
63	0x3e5fe327	0.21863995
64	0xbe3db556	-0.18526205
65	0x3eab5a86	0.334675
66	0x3df20242	0.11816837
67	0x3e20a5c5	0.15688236
68	0xbe845ca4	-0.2585193
69	0x3df3f597	0.11912077
70	0x3c03c939	0.008043581
71	0xbcd07596	-0.025446694
72	0x3ebc08a4	0.36725342
73	0xbbee4906	-0.0072718887
74	0x3e323382	0.17402461
75	0xbe0d62af	-0.13807176
76	0x3e358189	0.17725195
77	0xbe27bdfe	-0.1638107
78	0x3e02a072	0.12756518
79	0xbe462a4a	-0.1935207
80	0x3d89e8ea	0.06733878
81	0x3ebfff42	0.37499434
82	0xbe2da0ab	-0.16955821
83	0xbe5f3af0	-0.21799827
84	0x3dd5ff6d	0.10449109
85	0xbe502482	-0.20326427
86	0x3d3be4b3	0.0458724
87	0xbe22a978	-0.1588496
88	0xbe3ba809	-0.18325819
89	0x3e534fba	0.20635882
90	0x3da74213	0.081668995
91	0x3e577846	0.21041974
92	0x3e74632f	0.2386596
93	0xbc1c6a2e	-0.0095468
94	0x3c01e38f	0.007927789
95	0xbde00db1	-0.109401114
96	0xbe5d1c95	-0.21592934
97	0x3d43bb7d	0.047786225
98	0xbe4c6166	-0.1995903
99	0x3e8e9184	0.27845395
100	0x3d839e08	0.064266264
101	0x3c45f4c3	0.0120822815
102	0xbe7ecacd	-0.2488205
103	0x3ea1345d	0.31485263
104	0xbe90b408	-0.28262353
105	0xbe8f35eb	-0.27970824
106	0xbd8a5175	-0.06753818
107	0x3d834d1d	0.064111926
108	0x3d752909	0.059853587
109	0xbdede6e8	-0.116163075
110	0xbd648bc8	-0.05579737
111	0x3e97d3e2	0.2965384
112	0xbc2cc932	-0.010546016
113	0x3ea00f4b	0.31261668
114	0x3e95a8be	0.29230303
115	0xbebb1ed8	-0.3654697
116	0x3e0887ec	0.133331
117	0x3ee6a943	0.4505101
118	0x3da0e334	0.078558356
119	0x3d12868a	0.035772838
120	0x3e7cb481	0.24678232
121	0xbde09e6a	-0.10967715
122	0xbd3a03d0	-0.045413792
123	0x3e3e4bca	0.18583599
124	0xbd3e3c10	-0.046444
125	0xbdde738d	-0.10861883
126	0xbe3c1f87	-0.18371402
127	0x3d714dc7	0.058912065
128	0x3e603ccb	0.2189819
129	0xbdd7cd80	-0.10537243
130	0xbe6e4753	-0.23269396
131	0xbd5e5747	-0.054282453
132	0xbe5b2073	-0.21399097
133	0x3d78d8d1	0.060753647
134	0xbccfc83c	-0.025364034
135	0xbe274a40	-0.16336918
136	0x3d869f76	0.065733835
137	0x3d341d73	0.043973397
138	0x3e2ca7d7	0.16860901
139	0xbe61a5ee	-0.22035953
140	0x3e77dd1b	0.24205439
141	0x3e8c678c	0.2742275
142	0xbdecbab7	-0.115590505
143	0x3e5a5ce5	0.21324499
144	0x3d458e7c	0.048231587
145	0xbd72d48f	-0.059284743
146	0xbe9f665b	-0.3113278
147	0x3e35458d	0.17702313
148	0x3c83f0f9	0.016106116
149	0x3ed8e0f4	0.42359126
150	0xbeac1592	-0.33610207
151	0xbe31c955	-0.17361958
152	0x3d9456b3	0.07243099
153	0xbd7598c1	-0.05996013
154	0xbb5d514a	-0.0033770376
155	0x3e673669	0.2257935
156	0xbe996aca	-0.29964286
157	0xbe653f5e	-0.22387454
158	0xbe498212	-0.19678524
159	0x3eac134e	0.33608478
160	0xbe80a97b	-0.25129303
161	0xbcb1c3dd	-0.02169984
162	0xbe07c000	-0.13256836
163	0x3e4813b5	0.19538768
164	0xbe1daa8c	-0.1539709
165	0xbd5e1c51	-0.054226223
166	0xbe3d4a09	-0.18485273
167	0xbe97cc97	-0.29648277
168	0x3e04a4fa	0.12953559
169	0x3e1fa53f	0.1559038
170	0x3d048b02	0.03235913
171	0xbe78bf1c	-0.24291652
172	0xbdd7fd4d	-0.1054636
173	0xbc2bcf41	-0.010486425
174	0xbe134601	-0.14382173
175	0xbd6748b0	-0.056465805
176	0x3de9941e	0.11405204
177	0xbd897fc8	-0.067138255
178	0xbe0e4158	-0.13892114
179	0x3d96f806	0.073715255
180	0xbd38c83e	-0.04511284
181	0xbef315d4	-0.4747759
182	0x3e1356d4	0.14388591
183	0x3e0ca15e	0.13733432
184	0x3de91fa4	0.11382988
185	0xbe8cd2d6	-0.27504605
186	0x3dc299a9	0.095019646
187	0xbdaac12a	-0.08337624
188	0x3eb076a0	0.34465504
189	0x3e2560e6	0.16150245
190	0x3e85f90f	0.2616658
191	0x3d0cb4c4	0.03435208
192	0x3791b1d0	1.7368147e-05
193	0x3e150b41	0.14555074
194	0xbeae13b6	-0.33999413
195	0xbe5fddda	-0.21861973
196	0xbdceb326	-0.100927636
197	0xbe26cdb9	-0.16289414
198	0x3e079e5a	0.13244
199	0x3bffe114	0.007808814
200	0xbca76be0	-0.020437181
201	0x3e603ef8	0.2189902
202	0xbe5863f6	-0.21131882
203	0xbe6c321a	-0.23065987
204	0x3d15b82b	0.03655259
205	0xbe25fa3e	-0.16208741
206	0x3d489114	0.048966482
207	0xbd6d53cb	-0.05794124
208	0x3e97791d	0.2958459
209	0x3dcc75fb	0.099834405
210	0xbe2c990d	-0.16855259
211	0xbdfa8163	-0.1223171
212	0xbd63ef1e	-0.05564796
213	0x3e860e88	0.2618296
214	0xbe579498	-0.21052778
215	0xbe4abc55	-0.19798405
216	0x3ec9e4f6	0.39432496
217	0x3eb349d6	0.3501727
218	0x3e678482	0.22609141
219	0x3e3de1ad	0.1854312
220	0xbd51c6e1	-0.051215056
221	0x3ddc45c5	0.10755495
222	0x3e4cdb97	0.20005642
223	0xbdbcded1	-0.09222186
224	0x3d9e6c0c	0.07735452
225	0x3e748808	0.23880017
226	0x3cd33278	0.025780901
227	0x3c6fb4c1	0.014630497
228	0xbdf2b245	-0.118504085
229	0x3e3a6286	0.18201646
230	0x3e3eed19	0.18645133
231	0x3de6212d	0.112367965
232	0x3da7ed25	0.081995286
233	0xbd442c2d	-0.04789369
234	0x3db92017	0.09039324
235	0x3d7b96c3	0.061423074
236	0xbdeed0e3	-0.11660936
237	0x3d5aeb95	0.053447325
238	0x3a885c11	0.0010403414
239	0x3c456c94	0.012049813
240	0xbe891494	-0.26773512
241	0xbe4252d5	-0.1897691
242	0xbe5378aa	-0.20651498
243	0xbcdcefc3	-0.026969796
244	0x3eb35413	0.3502508
245	0x3e90029e	0.28126997
246	0xbd314c24	-0.043285504
247	0xbe961129	-0.29309967
248	0x3dc18906	0.09449963
249	0xbe9e7432	-0.30948025
250	0xbe00562d	-0.12532873
251	0xbd9770f9	-0.07394595
252	0xbdbe2428	-0.0928424
253	0xbe19cf24	-0.15020424
254	0xbe8dce59	-0.27696493
255	0x3df98577	0.121836595

linear1.bias f4 [128]
0	0xbc4b86b8	-0.012422256
1	0x3eb371dd	0.35047808
2	0x3e09540e	0.1341097
3	0x3ea01922	0.31269175
4	0xbdebf05d	-0.11520455
5	0x3dfb5afb	0.122732125
6	0xbe23f041	-0.16009618
7	0x3e0da579	0.13832654
8	0xbcb59ebc	-0.022170417
9	0x3d81dd24	0.06341007
10	0x3eb9c1a5	0.36280552
11	0xbe014f57	-0.12627922
12	0x3e2aa083	0.16662793
13	0x3e847260	0.2586851
14	0x3e8c5389	0.27407482
15	0x3d284d85	0.041089553
16	0x3ddb52fa	0.10709186
17	0x3e6e4242	0.23267463
18	0x3ea1e5bf	0.31620595
19	0x3e94316b	0.28943953
20	0xbc858d98	-0.016302869
21	0x3d87fe9b	0.06640359
22	0x3daa1542	0.08304836
23	0xbc9fdf82	-0.019515757
24	0x3e9c3c02	0.30514532
25	0x3e4b85ca	0.19875255
26	0x3d171810	0.036888182
27	0x3e859964	0.2609359
28	0xbd026977	-0.03183886
29	0x3dcfff4d	0.10156117
30	0x3d265eea	0.04061786
31	0xbd9568e0	-0.07295394
32	0x3e8e03f5	0.27737394
33	0x3d568ed5	0.05238231
34	0x3e972cf4	0.29526484
35	0x3e5beb04	0.2147637
36	0xbe043b68	-0.12913287
37	0x3c2cc7b3	0.010545659
38	0x3e38ced0	0.18047643
39	0x3eadf043	0.33972368
40	0xbd98e440	-0.0746541
41	0xbd6f12c9	-0.058367524
42	0x3eb93ed2	0.3618074
43	0x3dea5887	0.114426665
44	0x3ded2280	0.11578846
45	0x3decc4ad	0.115609504
46	0xbce597df	-0.02802652
47	0x3e5f2f67	0.21795426
48	0x3dd221d5	0.10260359
49	0x3e450d19	0.19243278
50	0x3e70c0b0	0.23511004
51	0x3e4ea56a	0.20180288
52	0x3b5e2655	0.003389736
53	0xbdc21571	-0.09476746
54	0x3e63b5d4	0.2223733
55	0x3e4593ad	0.19294615
56	0xbd564d55	-0.052319843
57	0x3e694145	0.22778805
58	0x3e5a7497	0.21333538
59	0x3e7b342a	0.24531618
60	0x3ebbc3c3	0.36672792
61	0xbd20df63	-0.03927554
62	0x3e8917f4	0.26776087
63	0xbcec08ae	-0.028812733
64	0x3e90385c	0.28168
65	0xbccdda19	-0.025128411
66	0x3ea25178	0.3170278
67	0x3cbb0db9	0.022833692
68	0x3dd3e637	0.10346644
69	0x399a1023	0.00029385192
70	0x3e0e94cf	0.13923953
71	0xbd2cd66d	-0.04219668
72	0x3db12e56	0.08651416
73	0x3c934650	0.017977864
74	0xbe2af377	-0.16694437
75	0xbdaabc45	-0.08336691
76	0xbd55def1	-0.052214567
77	0x3d765071	0.06013531
78	0x3e553184	0.2081967
79	0x3e9abb92	0.3022123
80	0x3ea80cb8	0.32822204
81	0xbca4c15e	-0.020111736
82	0xbdcf072b	-0.10108789
83	0x3d7dcdba	0.061963774
84	0x3edf128a	0.43568832
85	0x3db1bd7a	0.08678718
86	0x3d6f2f06	0.058394454
87	0xbe0983c7	-0.13429175
88	0x3e5f90c4	0.21832567
89	0x3ea7bd0a	0.32761413
90	0x3e77339e	0.24140784
91	0x3d984ecd	0.07436905
92	0x3eb2473a	0.34819967
93	0x3e0beecc	0.13665313
94	0x3ec6f46d	0.38858357
95	0xbd139b8c	-0.036037013
96	0x3eb3ea03	0.35139474
97	0xbdd24f8e	-0.1026908
98	0x3e941647	0.28923246
99	0x3d53b85d	0.051689494
100	0x3e4bdcda	0.19908467
101	0x3e61fd72	0.22069338
102	0xbe2f11e6	-0.17096671
103	0xbd607c49	-0.054806028
104	0x3e8d1067	0.27551576
105	0x3e8995ad	0.26872006
106	0xbd967109	-0.073457785
107	0x3dc45190	0.09585869
108	0xbde35df4	-0.111019045
109	0x3eab8992	0.33503395
110	0x3ee7c765	0.45269313
111	0x3db7d676	0.08976452
112	0x3eb748c3	0.357977
113	0x3dc75ebe	0.097348675
114	0xbdfb42d8	-0.12268609
115	0x3ea2d5d9	0.31803778
116	0x3e09616a	0.13416067
117	0x3e7a04c3	0.24415879
118	0x3e9b5389	0.3033717
119	0xbe0c3d5c	-0.13695282
120	0x3e8f360b	0.2797092
121	0xbda4b1f5	-0.08041755
122	0x3eaa4949	0.33259037
123	0x3e7ccdf6	0.24687943
124	0x3dc82031	0.09771765
125	0x3de9a87e	0.114090905
126	0x3df5b20a	0.11996849
127	0xbc44cefe	-0.012012241

linear2.weight f4 [79, 128]
0	0xbd5dc0cd	-0.054138947
1	0xbe853e32	-0.26024014
2	0x3e8a6a57	0.27034256
3	0x3dec6748	0.11543137
4	0x3e21e614	0.15810424
5	0xbde2a2d4	-0.11066213
6	0x3d3acda8	0.045606285
7	0x3ea92739	0.33037737
8	0xbe06d8fd	-0.13168712
9	0xbdb3b356	-0.0877444
10	0xbd99426c	-0.07483372
11	0x3c7205c8	0.014771886
12	0xbc7a662b	-0.015283148
13	0x3e428f96	0.19000086
14	0x3e97de34	0.29661715
15	0x3cb5a798	0.022174641
16	0xbb39ae92	-0.0028332812
17	0xbe4f212b	-0.20227496
18	0x3cc76aad	0.02434286
19	0xbe45bac2	-0.19309524
20	0x3e7d6c49	0.24748339
21	0x3a1e85c4	0.00060471543
22	0x3e743f0b	0.23852174
23	0xbd386877	-0.0450215
24	0xbdb05abf	-0.086110584
25	0xbe223dfa	-0.15843955
26	0xbe43fec2	-0.19140151
27	0xbde3fe0c	-0.1113244
28	0x3ce47832	0.027889345
29	0xbe0f7269	-0.14008488
30	0xbda04049	-0.078247614
31	0x3e0538af	0.13009904
32	0x3c2f61b1	0.010704444
33	0xbd48078c	-0.048835322
34	0xbe26a960	-0.16275549
35	0xbe15fe5c	-0.14647812
36	0xbe3353d6	-0.1751245
37	0xbd728ef0	-0.059218347
38	0x3e025bd6	0.12730345
39	0xbe5f2641	-0.21791936
40	0x3b259ce7	0.0025270523
41	0xbdc67ada	-0.09691401
42	0x3ebc6eae	0.36803192
43	0x3e4c7b1c	0.19968837
44	0xbdefe286	-0.11713128
45	0xbd306f74	-0.04307504
46	0xbd87a0a3	-0.06622436
47	0xbdd8f0f1	-0.10592831
48	0x3d61be5a	0.055113174
49	0x3e2f7775	0.17135413
50	0x3edb49f7	0.42829868
51	0x3dad7d7c	0.084712
52	0xbe3ba06c	-0.18322915
53	0xbd599805	-0.053123493
54	0x3eb3641f	0.35037324
55	0xbdb0db33	-0.08635559
56	0x3eee586a	0.4655183
57	0xbdb31bf6	-0.087455675
58	0x3e3e3a3d	0.18576904
59	0x3d27fed0	0.041014493
60	0xbe028eb2	-0.12749746
61	0x3e30c960	0.17264318
62	0xbe43ffe3	-0.19140582
63	0x3e068306	0.13135919
64	0xbde8ec0f	-0.113731496
65	0xbd84b5a3	-0.06479957
66	0x3d122a5d	0.035684932
67	0xbe146b33	-0.14494018
68	0x3e2d02ce	0.16895601
69	0x3da962de	0.082708105
70	0x3cc64bf3	0.024206137
71	0xbe26a193	-0.16272573
72	0xbdc099a0	-0.09404302
73	0x3cf1c4b5	0.029512743
74	0x3e9f679e	0.3113374
75	0xbaea1b8f	-0.0017860996
76	0x3dfa369f	0.122174494
77	0xbd92187d	-0.07133577
78	0x3d5dbe5c	0.05413662
79	0x3ea1eaf7	0.31624576
80	0xbcbb43b4	-0.022859432
81	0x3e81a003	0.25317392
82	0x3e5d057b	0.21584122
83	0xbdf6d70e	-0.12052737
84	0xbb0aa42e	-0.0021154988
85	0xbda490e7	-0.080354504
86	0xbe42950a	-0.19002166
87	0xbd818d57	-0.063257866
88	0xbaba24d8	-0.0014201654
89	0x3e91fb03	0.2851182
90	0x3de9f699	0.11423988
91	0xbe485f26	-0.19567546
92	0xbe92bff9	-0.2866209
93	0xbc598dd3	-0.013278442
94	0xbe5c6301	-0.21522142
95	0xbda01073	-0.078156374
96	0xbe3b8593	-0.18312673
97	0xbd2553fb	-0.040363293
98	0xbdd40234	-0.10351983
99	0xbe17085e	-0.14749286
100	0xbeb74fab	-0.3580297
101	0x3e5d8d8d	0.21636029
102	0x3d79f73a	0.06102679
103	0x3debf577	0.11521428
104	0x3cb4193b	0.021984687
105	0x3df346a2	0.118787065
106	0x3e18c757	0.14919792
107	0x3d4c3474	0.04985471
108	0x3de0d182	0.109774604
109	0x3dd2bd3a	0.10289998
110	0xbd8d3ff4	-0.06896964
111	0xbe288056	-0.16455206
112	0xbca84f4c	-0.020545624
113	0x3d9c232e	0.076238975
114	0xbcd03d6e	-0.025419917
115	0xbde9462b	-0.113903366
116	0x3e7e70be	0.24847695
117	0xbdefd9c4	-0.11711457
118	0xbe6aca0f	-0.22928642
119	0x3e81832c	0.2529539
120	0x3e595234	0.21222764
121	0x3e136582	0.14394191
122	0x3f1b0bb5	0.6056474
123	0x3b632271	0.003465798
124	0xbe7cf84f	-0.24704097
125	0xbe2a4f6a	-0.16631857
126	0x3eaf18a3	0.34198484
127	0x3d79afc4	0.06095864
128	0xbd134540	-0.035954714
129	0xbdb2dec8	-0.087338984
130	0xbd3e9d6d	-0.04653685
131	0x3b01d054	0.001980801
132	0xbc4aba71	-0.012373553
133	0x3d2be501	0.041966442
134	0x3d76541c	0.060138807
135	0xbd8df64c	-0.06931743
136	0x3d3ee602	0.04660607
137	0x3c69273b	0.014230545
138	0xbd1df708	-0.038565665
139	0x3d8dc6ca	0.06922682
140	0xbda466ae	-0.08027397
141	0x3ce0ca15	0.02744011
142	0xbcbff79c	-0.023433499
143	0xbd8e6e03	-0.06954577
144	0x3c832018	0.016006514
145	0xbd1e5de4	-0.03866376
146	0x3d3e808a	0.046509303
147	0xbdd91674	-0.10599986
148	0x3a3be1ce	0.00071671314
149	0xbd50ae99	-0.05094776
150	0xbd3708fe	-0.04468631
151	0xbdcd7317	-0.10031717
152	0x3c96237f	0.018327473
153	0xbd20ad3f	-0.03922772
154	0x3d37dfea	0.044891275
155	0xbddccbfd	-0.10781095
156	0xbca43b01	-0.020047667
157	0xbdb8e3b2	-0.090278044
158	0xbad1f997	-0.0016019818
159	0xbd4ac85b	-0.04950748
160	0xbd7700dc	-0.060303554
161	0x3d8181da	0.06323595
162	0xbdaf8bd1	-0.0857159
163	0xbd5eef3c	-0.05442737
164	0xbd8be10c	-0.06830034
165	0x3d367685	0.044546623
166	0xbd47d18e	-0.04878383
167	0xbc3a237b	-0.011360998
168	0x3ca687ce	0.020328429
169	0xbd404f9c	-0.04695092
170	0xbdce111f	-0.10061859
171	0xbd66d38e	-0.056354098
172	0xbb766cc5	-0.0037601453
173	0xbcd62606	-0.026141178
174	0x3c01019d	0.00787392
175	0xbdd18286	-0.102299735
176	0xbdb9f222	-0.09079386
177	0xbcc24a2c	-0.023717009
178	0xbde93a54	-0.11388078
179	0x3d6af202	0.057359703
180	0x3d064c95	0.032787878
181	0xbd8c5b6a	-0.06853373
182	0xbcbad01b	-0.02280431
183	0xbd5745e0	-0.052556872
184	0x3c761bd2	0.015021281
185	0x3ca99198	0.020699307
186	0xbdb30053	-0.08740296
187	0xbcc71c3c	-0.024305455
188	0x3bce93eb	0.0063042543
189	0xbd8c6067	-0.06854325
190	0xbdbcdd07	-0.09221845
191	0xbd6f6355	-0.05844434
192	0xbdc1fa1c	-0.09471533
193	0x3d4df3f6	0.050281487
194	0x3d1f6247	0.038912084
195	0xbd658b28	-0.056040913
196	0x3cd59cce	0.026075747
197	0x3d5e2045	0.054229993
198	0x3d7ec2b6	0.06219741
199	0x3c29d46a	0.010365585
200	0x3d7ea935	0.062173087
201	0xbdb4d1df	-0.08829092
202	0xbc48450c	-0.012223493
203	0x3d5b8dd8	0.05360207
204	0xbca9734c	-0.02068486
205	0x3c6a5cac	0.014304321
206	0xbc5f40df	-0.013626306
207	0x3d2f9db8	0.04287502
208	0xbdc5f9f9	-0.09666819
209	0xbd647ab9	-0.0557811
210	0x3d5e711b	0.054307085
211	0x3d85f5c3	0.06541016
212	0x3c346252	0.0110097695
213	0xbd20e0a6	-0.03927674
214	0xbdb3d8a0	-0.08781552
215	0xbd852ec6	-0.06503062
216	0x3d412b84	0.04716064
217	0xbda694c1	-0.08133841
218	0xbcee49ab	-0.029087862
219	0xbdccd4da	-0.10001536
220	0xbd9fdd13	-0.078058384
221	0xbbcc065c	-0.006226344
222	0xbd73f153	-0.059556317
223	0xbc242653	-0.010018903
224	0xbd6b5f22	-0.057463773
225	0x3d5c80e0	0.053833842
226	0x3be8fe56	0.0071103973
227	0xbd5b1bcd	-0.05349331
228	0xbc73e470	-0.014886007
229	0xbd25d0be	-0.040482275
230	0xbdb0a184	-0.08624557
231	0x3c554a26	0.013018167
232	0x3c987dcb	0.01861467
233	0xbd7a778d	-0.06114917
234	0xbc0c32f8	-0.008557074
235	0xbd42b68e	-0.04753738
236	0xbd0b475f	-0.03400361
237	0x3c1eb49d	0.009686616
238	0xbc200002	-0.009765627
239	0xbdc5e9cd	-0.096637346
240	0x3cd6b015	0.02620701
241	0x3d5b6b4a	0.053569116
242	0x3c38739e	0.011258034
243	0xbc4cb2ca	-0.0124937985
244	0xbd98f126	-0.074678704
245	0xbb03230f	-0.002000991
246	0xbd986739	-0.07441563
247	0xbcfbd834	-0.030742742
248	0x3d444bcf	0.04792386
249	0xbdb724e5	-0.08942584
250	0xbcee1920	-0.029064715
251	0xbdb22a10	-0.08699429
252	0xbdb32ac5	-0.08748392
253	0x3b201588	0.0024426896
254	0x3d1a9ebc	0.037749037
255	0x3d5d5f5c	0.05404602

linear2.bias f4 [79]
0	0xbd238e83	-0.03993083
1	0xbd921542	-0.07132961
2	0x3dffceaa	0.1249059
3	0x3bbfef19	0.00585736
4	0x3d0756d1	0.03304178
5	0xbcedbef3	-0.029021716
6	0xbd8ab7bf	-0.06773328
7	0x3cf81074	0.030281283
8	0x3dd4bce4	0.103875905
9	0xbde125bb	-0.10993525
10	0x3d14d2b4	0.036333755
11	0x3bd3b5de	0.0064608892
12	0xbc9fbfa5	-0.019500563
13	0xbd991cc2	-0.07476188
14	0x3b928b8d	0.004472202
15	0xbba32ed0	-0.0049799457
16	0x3bb4d67e	0.0055187335
17	0x3b94614c	0.0045282003
18	0xbdc764ea	-0.09736045
19	0xbd8fce23	-0.07021739
20	0x3e2be8b3	0.16787986
21	0x3d679507	0.056538608
22	0x3df61a02	0.12016679
23	0xbce0513c	-0.027382486
24	0xbd21d09c	-0.039505586
25	0x3cc67ccc	0.02422943
26	0x3d1e0786	0.038581394
27	0x3d27987a	0.040916897
28	0x3d8d27d5	0.06892363
29	0x3c4280e6	0.011871552
30	0xbd7a9288	-0.0611749
31	0xbdb8e20d	-0.09027491
32	0xbd6972be	-0.056994192
33	0xbc5aa51e	-0.013345031
34	0xbd2ba2f3	-0.041903447
35	0x3d6bdebb	0.05758546
36	0x3db7ae9a	0.089688495
37	0x3d85157f	0.06498241
38	0x3c957d61	0.018248262
39	0x3a17f9f9	0.00057974417
40	0x3d4bd837	0.049766745
41	0xbc831738	-0.016002283
42	0x3dbb6a78	0.09151167
43	0xbcc5f66b	-0.024165353
44	0xbae869eb	-0.0017731761
45	0xbd6677b0	-0.056266487
46	0x3dafcdf4	0.08584204
47	0x3c852120	0.016251147
48	0x3d24bf07	0.04022124
49	0xbdc62b04	-0.09676173
50	0x3d487fd8	0.048950046
51	0xbd0a6e7c	-0.033796772
52	0xbdb0f61b	-0.08640691
53	0x3c4b63d5	0.0124139385
54	0xbdc5b9ff	-0.096546166
55	0xbd261b4a	-0.04055337
56	0x3d097fe8	0.033569247
57	0x3ca139f3	0.019680953
58	0x3d918225	0.07104901
59	0xbdec1763	-0.11527898
60	0x3d492a9d	0.049112905
61	0x3ce4d01f	0.027931271
62	0x3b5b0456	0.0033419332
63	0x3c9daab4	0.019246437
64	0xbd1f4582	-0.038884647
65	0xbc014ab7	-0.007891349
66	0xbcc08af0	-0.02350375
67	0x3dad6ec4	0.084683925
68	0xbdf317fa	-0.118698075
69	0xba2b08ff	-0.0006524473
70	0x3dada58d	0.08478842
71	0xbcee264c	-0.029070996
72	0x3bb8a137	0.0056344527
73	0x3d61a9fc	0.05509375
74	0xbcdab26e	-0.02669641
75	0xbd4dae0e	-0.05021482
76	0xbc875845	-0.016521582
77	0x3c3c6621	0.011498959
78	0x3ca32444	0.019914754
