Part-2/Lab 2 - Neural Networks/2gram.pth (torch, 56762 bytes, 5 tensors)

embeddings.weight f4 [79, 10]
-0.9294527 0.22803594 0.7479237 0.18870233 1.0818473 -1.5097286 3.4317183 -2.4881778
-0.6944169 0.76409346 1.3542439 0.10888763 0.6525186 -0.5014776 0.22711535 -0.428953
0.8660269 0.19803421 -0.5250832 1.9538599 -0.74852866 -1.0720688 0.51840055 -0.97403014
0.7966638 -0.42488277 0.80894 -0.3560107 0.9986449 1.7513746 -1.0292829 -0.39299858
-0.3798567 -0.67779183 -1.964291 0.23959573 0.65529287 1.8236641 -2.341687 -2.350221
-1.4556944 0.25603876 0.76662815 2.1815305 -1.0624495 0.5957572 -1.7093154 1.4648354
0.39641353 1.5214733 -2.4957829 0.25046182 0.35203055 -1.353974 -0.4722844 -0.80121994
0.26528415 -0.8763734 -1.364248 0.05727618 0.57603925 0.97827494 -0.04595956 0.86839825
-0.4342497 -0.4118334 -0.92099714 0.53973657 -0.85875326 1.1942111 1.1695231 0.52975875
-0.22523646 0.4081354 -0.0706836 -0.1383238 0.014736578 -0.5284856 -0.5477938 -1.6955382
-1.7425089 1.7631974 -0.08467395 1.3270153 2.3837745 0.90572107 -1.062985 -0.70403796
1.1266177 -0.8099413 0.6882835 1.1272027 -1.5992424 1.0440727 -0.5295321 1.7838118
1.6554044 -0.85925114 -0.12916584 -1.3291224 1.081814 0.060618956 1.0379747 -0.53609776
1.7354114 0.8007176 -0.40892014 0.5448579 0.3222127 0.5117977 1.6257015 -1.0980992
0.46477297 0.67366 0.88480824 -0.08598997 0.56854445 0.6332148 0.42773172 0.1356382
0.20177546 0.901307 -0.27589455 -1.1574436 0.13820718 0.105302684 0.9467073 -1.7478142
-1.3032433 0.8869303 1.4120255 0.1531807 0.34987566 -0.2306148 -0.33116725 0.40313876
-0.58971006 0.034781355 -0.19336817 0.9595154 -0.15155444 -0.8849513 -1.1096224 -1.4288028
-1.1166189 -1.7551961 -0.07313707 -1.8159642 -0.7612252 1.1655681 0.5882615 -0.9405092
-0.09659689 -0.61792576 0.4464232 -0.47726792 -0.47214404 1.8067015 -0.07335964 -0.8343309
-1.8027755 -1.1378001 -0.60120046 -0.55082583 0.6575791 1.3830298 0.558849 0.3863562
-1.5856943 0.2053596 -0.45907497 0.4537076 -0.86651236 -1.1694546 0.76329345 0.6552941
0.6126257 0.7451967 0.22590818 -1.7757623 -1.1496419 2.342493 1.6458416 0.37407205
0.8814658 -0.5568637 -1.277103 1.7256924 -0.33009586 0.66443014 0.61546576 -0.69713515
1.019572 0.28187606 -1.3612064 -0.39656985 0.52092737 0.52512217 -2.0156467 -0.60154265
-1.2685195 1.6992859 1.3963467 0.6797383 -0.33650905 -0.52142817 -2.0449648 -0.98916745
0.2591057 -1.7670796 -0.33496955 0.30939084 -0.2989255 1.599859 0.9183854 0.25883535
-0.7148571 -0.28998035 1.4166467 1.2790295 -1.2636449 -0.6172296 0.043122467 -1.859875
0.84372216 0.4527453 -1.453907 -1.4465262 -1.3345019 0.20023295 -0.7419016 1.9304296
-0.06144858 1.2749087 -2.1716313 -1.4730357 -0.3929331 -0.029679451 -0.78392386 -0.25835028
0.37896657 -0.8233214 -1.2289484 -2.1204348 -0.5705155 -0.21518208 -1.2590793 -0.31496873
0.43376693 -1.2190576 -0.3066412 0.16607596 0.63249016 1.5980009 -0.10291784 -0.29780108
00000000: 9df0 6dbf 4182 693e ed77 3f3f 2f3b 413e
00000010: f979 8a3f c93e c1bf 46a1 5b40 4e3e 1fc0
00000020: 4ec5 31bf a19b 433f dd57 ad3f 7a00 df3d
00000030: 750b 273f d660 00bf ed90 683e ba9f dbbe
00000040: f0b3 5d3f 7bc9 4a3e da6b 06bf 1518 fa3f
00000050: 939f 3fbf 8d39 89bf e6b5 043f 0a5a 79bf
00000060: 29f2 4b3f 3c8a d9be b116 4f3f 0947 b6be
00000070: 31a7 7f3f 0b2d e03f 8bbf 83bf 1c37 c9be
00000080: 947c c2be c483 2dbf e36d fbbf 9558 753e
00000090: 46c1 273f d36d e93f 33de 15c0 056a 16c0
000000a0: 3254 babf 8317 833e be41 443f 329e 0b40
000000b0: 58fe 87bf 8b83 183f d9ca dabf ba7f bb3f
000000c0: b7f6 ca3e a3bf c23f e8ba 1fc0 883c 803e
000000d0: 593d b43e 054f adbf 43cf f1be c01c 4dbf
000000e0: 53d3 873e 025a 60bf ae9f aebf 6d9a 6a3d
000000f0: 4f77 133f 3a70 7a3f 1740 3cbd 594f 5e3f
00000100: fa55 debe d4db d2be 78c6 6bbf 2d2c 0a3f
00000110: 41d7 5bbf e9db 983f efb2 953f 459e 073f
00000120: 63a4 66be 20f7 d03e 90c2 90bd c1a4 0dbe
00000130: b071 713c d54a 07bf 373c 0cbf 6507 d9bf
00000140: 880a dfbf 74b0 e13f 8969 adbd a3db a93f
00000150: c38f 1840 56dd 673f e40f 88bf d53b 34bf
00000160: 0235 903f 5058 4fbf 5933 303f 2e48 903f
00000170: fab3 ccbf 2da4 853f 6a8f 07bf f253 e43f
00000180: 4be4 d33f e2f7 5bbf 0d44 04be af20 aabf
00000190: e278 8a3f 954b 783d 5bdc 843f b43d 09bf
000001a0: f621 de3f d4fb 4c3f fb5d d1be cf7b 0b3f
000001b0: 10f9 a43e 2d05 033f fd16 d03f 848e 8cbf
000001c0: b9f6 ed3e fb74 2c3f cb82 623f 821b b0bd
000001d0: 218c 113f 5d1a 223f a7ff da3e bee4 0a3e
000001e0: 3a9e 4e3e 0ebc 663f 0d42 8dbe 1d27 94bf
000001f0: 2f86 0d3e efa8 d73d 695b 723f 60b8 dfbf
00000200: add0 a6bf dd0d 633f 40bd b43f 67db 1c3e
00000210: e722 b33e 4926 6cbe c18e a9be 3468 ce3e
00000220: 3df7 16bf e576 0e3d 4e02 46be cda2 753f
00000230: 1631 1bbe 2b8c 62bf 1b08 8ebf 03e3 b6bf
00000240: 5eed 8ebf 44aa e0bf e3c8 95bd 8471 e8bf
00000250: a8df 42bf 5631 953f 4e98 163f 36c5 70bf
00000260: 97d4 c5bd 6230 1ebf 9591 e43e 765c f4be
00000270: ddbc f1be ff41 e73f 943d 96bd b696 55bf
00000280: 59c1 e6bf 6fa3 91bf 46e8 19bf ec02 0dbf
00000290: 1b57 283f 1f07 b13f ba10 0f3f 7bd0 c53e
000002a0: 08f8 cabf c949 523e e00b ebbe 5d4c e83e
000002b0: c1d3 5dbf b0b0 95bf 3367 433f 5bc1 273f
000002c0: 0ad5 1c3f 36c5 3e3f 7954 673e 2e4c e3bf
000002d0: 7727 93bf 68eb 1540 f0aa d23f 5f86 bf3e
000002e0: bea7 613f 9f8e 0ebf 1c78 a3bf 7de3 dc3f
000002f0: 5302 a9be 1818 2a3f 2a8f 1d3f 7377 32bf
00000300: 5681 823f 0f52 903e 033c aebf 340b cbbe
00000310: 7f5b 053f 686e 063f 5b00 01c0 b3fe 19bf
00000320: d95e a2bf 3382 d93f 7dbb b23f 5403 2e3f
00000330: ea4a acbe 517c 05bf b4e0 02c0 143a 7dbf
00000340: 81a9 843e aa2f e2bf 2181 abbe 7a68 9e3e
00000350: c30c 99be 2ec8 cc3f 4e1b 6b3f 1186 843e
00000360: e000 37bf 4e78 94be ae54 b53f 3db7 a33f
00000370: 1ebf a1bf c202 1ebf 2fa1 303d 6210 eebf
00000380: 2dfe 573f 3bce e73e a019 babf c527 b9bf
00000390: f5d0 aabf de09 4d3e 43ed 3dbf 5118 f73f
000003a0: 82b1 7bbd 3530 a33f 02fc 0ac0 6f8c bcbf
000003b0: 872e c9be 5222 f3bc 3caf 48bf 7d46 84be
000003c0: e807 c23e 31c5 52bf 2e4e 9dbf 34b5 07c0
000003d0: 4e0d 12bf b158 5cbe 8329 a1bf 9543 a1be
000003e0: b316 de3e 140a 9cbf 1300 9dbe d10f 2a3e
000003f0: e0ea 213f 4b8b cc3f 97c6 d2bd 6279 98be

linear1.weight f4 [128, 20]
-0.00040204014 -0.13202344 0.33622053 0.023957446 -0.032411106 -0.20486593 0.11219725 0.0051095206
0.022734722 0.18306708 -0.2408406 0.14195655 -0.24985544 0.36970568 -0.11248251 0.22141951
-0.3901686 -0.0569987 0.34028366 0.066476226 0.3002422 -0.04820843 -0.21521562 -0.15024543
-0.019811599 -0.16859743 -0.19168273 -0.12828489 -0.2610887 0.010488757 -0.18751037 0.00027955856
-0.1084884 0.016796427 -0.26217872 0.31738403 -0.20667975 -0.22119306 0.1979082 0.2638238
-0.15321511 0.20850691 0.3025163 0.11382237 0.1396508 -0.20338 -0.038431447 0.25496218
-0.060857218 0.0045574997 0.30733377 0.16317797 0.2460983 0.16714239 0.22321005 0.062442947
0.030271545 0.22099063 -0.09044816 0.01293079 -0.1741946 0.26748395 -0.1548062 0.09529629
0.14855608 0.1480549 -0.08617353 0.018270234 0.13713732 -0.2189966 -0.10955763 -0.2761009
0.031254616 -0.07257231 -0.20516749 0.00062573474 -0.101056345 -0.18392216 0.11324449 -0.13028155
0.15719818 0.20725955 0.24900152 -0.23209366 -0.061309546 -0.16526556 0.3250548 0.08879546
-0.32574153 -0.32919607 -0.04639126 -0.20537703 0.012974462 -0.088010944 0.07670347 0.12202138
0.033634517 -0.1339215 0.10288942 -0.16270767 -0.29781637 -0.25654212 -0.0007891645 0.33742154
0.20042346 0.046021618 0.30294344 -0.34016666 0.060406532 0.036059096 -0.17175369 -0.04066896
-0.0067883204 -0.2629575 0.005447536 0.11997176 0.13964039 0.058136035 -0.057373073 -0.16869055
-0.05575652 -0.21378013 -0.24599998 -0.15567146 -0.28142312 0.05277216 -0.18503234 0.16513857
-0.41220975 -0.23892784 -0.25166872 -0.23041779 0.13751908 0.12041962 -0.011119523 -0.083461314
0.1387196 -0.21412414 0.011561828 0.30160663 0.1215572 -0.24784708 0.11801914 -0.12258318
0.23753156 0.1183845 -0.3181334 -0.28977212 0.09689983 0.15528107 0.3019613 0.12669857
-0.08548307 0.09958645 -0.15494177 -0.051285293 0.18889193 0.10592004 -0.16323394 -0.034401592
-0.12752154 -0.2700547 -0.119416565 0.21548718 -0.14402607 0.029117584 0.10895589 0.18542105
0.27505746 -0.22447415 -0.042516947 -0.27976766 0.09347086 0.111326985 0.11018731 -0.10556406
-0.0001217191 -0.23177372 0.21250479 0.3778985 0.14329195 -0.069350764 0.020333681 -0.14651999
-0.21454911 -0.07896685 -0.1753346 -0.07241299 -0.2982799 0.041437533 -0.0971931 -0.18630672
-0.026432341 -0.043225307 0.17066376 0.17512171 0.24312483 0.006094364 -0.25537843 0.26263544
0.23763758 -0.13805938 -0.1547512 -0.016204016 -0.17526197 0.2008948 -0.28575772 0.067821
0.13573207 0.15290436 -0.107133694 0.1907508 -0.051182497 -0.17693208 0.0007515331 -0.19833493
0.35490477 -0.13217351 -0.05563827 -0.008861726 0.112927966 0.07077461 -0.24220783 0.2847618
-0.14261208 0.2035636 0.0012605775 -0.2334344 0.27500492 -0.17492975 -0.03669444 -0.1500999
0.062390476 0.06445559 -0.15339166 0.044262886 0.29505342 0.2386869 0.16016982 -0.084670074
-0.24088334 -0.10487907 0.13475916 0.14334492 -0.02877658 0.16128005 0.2523358 -0.037817504
0.29421318 0.3597186 -0.060180716 -0.14964308 -0.1287965 0.29852584 0.19479921 0.13998567
00000000: eac8 d2b9 2731 07be 1925 ac3e 6842 c43c
00000010: 82c1 04bd 60c8 51be acc7 e53d c46d a73b
00000020: 2b3e ba3c f075 3b3e eb9e 76be 0f5d 113e
00000030: 1bda 7fbe 104a bd3e 3b5d e6bd ccbb 623e
00000040: 2ec4 c7be 7877 69bd a939 ae3e b024 883d
00000050: 58b9 993e 3476 45bd 7c61 5cbe f0d9 19be
00000060: ef4b a2bc cea4 2cbe 7a48 44be 1d5d 03be
00000070: 6bad 85be 09d9 2b3c b802 40be b791 9239
00000080: 2b2f debd a998 893c 4a3c 86be 2980 a23e
00000090: dba3 53be 6f80 62be 72a8 4a3e ea13 873e
000000a0: 6ce4 1cbe d682 553e 6be3 9a3e b41b e93d
000000b0: 9f00 0f3e d942 50be 4b6a 1dbd 678a 823e
000000c0: 6b45 79bd 1457 953b da5a 9d3e 2018 273e
000000d0: 3101 7c3e 6027 2b3e 2d91 643e 2dc4 7f3d
000000e0: 08fc f73c 5e4b 623e e33c b9bd aadb 533c
000000f0: 1260 32be a8f3 883e 8485 1ebe b42a c33d
00000100: 161f 183e b49b 173e bf7b b0bd 75ab 953c
00000110: ba6d 0c3e a540 60be c05f e0bd 195d 8dbe
00000120: d704 003d cba0 94bd 6d17 52be 5908 243a
00000130: a1f6 cebd 1756 3cbe baec e73d 8768 05be
00000140: 8ff8 203e d93b 543e 41fa 7e3e f6a9 6dbe
00000150: b81f 7bbd 603b 29be 956d a63e 65da b53d
00000160: 98c7 a6be 638c a8be c304 3ebd 5b4e 52be
00000170: d692 543c 153f b4bd b516 9d3d 58e6 f93d
00000180: 59c4 093d b822 09be b0b7 d23d d79c 26be
00000190: 637b 98be 7d59 83be efdf 4eba 84c2 ac3e
000001a0: cf3b 4d3e 2a81 3c3d 671b 9b3e 532a aebe
000001b0: d76c 773d b4b2 133d 33e0 2fbe 7f94 26bd
000001c0: 8f70 debb 5ea2 86be 3e81 b23b c1b3 f53d
000001d0: e4fd 0e3e 0d20 6e3d 0700 6bbd 37bd 2cbe
000001e0: f360 64bd 2ee9 5abe 6be7 7bbe 5768 1fbe
000001f0: b116 90be 9f27 583d 1e79 3dbe 161a 293e
00000200: 280d d3be 80a9 74be b9da 80be a4f2 6bbe
00000210: cdd1 0c3e 909e f63d a92e 36bc c4ed aabd
00000220: 830c 0e3e 5c43 5bbe d26d 3d3c 2f6c 9a3e
00000230: fbf2 f83d a0cb 7dbe 05b4 f13d e40c fbbd
00000240: 793b 733e 9373 f23d 62e2 a2be 035d 94be
00000250: 6b73 c63d 0002 1f3e ac9a 9a3e 45bd 013e
00000260: bf11 afbd fbf3 cb3d 0ea9 1ebe 8710 52bd
00000270: e36c 413e 9bec d83d cc26 27be afe8 0cbd
00000280: 0295 02be 9c44 8abe ac90 f4bd aca8 5c3e
00000290: 927b 13be 0088 ee3c 4424 df3d 04df 3d3e
000002a0: 55d4 8c3e 8ddc 65be 4026 2ebd b53d 8fbe
000002b0: a66d bf3d 67ff e33d e2a9 e13d f831 d8bd
000002c0: 7243 ffb8 1756 6dbe db9a 593e ea7b c13e
000002d0: 20bb 123e c607 8ebd d292 a63c 5609 16be
000002e0: c3b2 5bbe 5fb9 a1bd ea8a 33be 434d 94bd
000002f0: 25b8 98be 67ba 293d 2d0d c7bd 30c7 3ebe
00000300: a388 d8bc 050d 31bd 7bc2 2e3e 1b53 333e
00000310: b7f5 783e 3bb3 c73b f6c0 82be 2778 863e
00000320: 4457 733e 705f 0dbe 1977 1ebe 49be 84bc
00000330: e077 33be 5eb7 4d3e d64e 92be bde5 8a3d
00000340: 59fd 0a3e f692 1c3e e968 dbbd 2d54 433e
00000350: bda4 51bd af2d 35be 8802 453a 5018 4bbe
00000360: 14b6 b53e 7e58 07be f4e4 63bd c630 11bc
00000370: c746 e73d 47f2 903d 5405 78be 4ccc 913e
00000380: e708 12be fa72 503e f639 a53a 6d09 6fbe
00000390: 72cd 8c3e c920 33be e94c 16bd cab3 19be
000003a0: 288d 7f3d 4b01 843d b412 1dbe 004d 353d
000003b0: 3e11 973e 576a 743e 8f03 243e 8167 adbd
000003c0: 1faa 76be d6ca d6bd 4efe 093e 03c9 123e
000003d0: ddbc ebbc 9926 253e 2832 813e 87e6 1abd
000003e0: 1ca3 963e 092d b83e 0e80 76bd 093c 19be
000003f0: 3be3 03be 61d8 983e 7279 473e 6758 0f3e

linear1.bias f4 [128]
0.01238956 0.23330507 0.3462932 -0.18628503 0.047199327 -0.10757446 -0.11784916 0.26360106
0.041824427 0.07129481 0.10950881 0.34810638 -0.16524613 0.28299502 0.09893078 0.16049673
0.04350364 -0.13116612 0.3417034 -0.03923707 -0.031975526 0.037510663 0.19308779 0.22411425
0.28478876 -0.117272355 0.27658144 0.06460927 -0.09865055 0.19476098 0.048926305 -0.10313898
-0.027962595 -0.11073761 -0.1248266 0.04813487 -0.13838415 -0.1720428 0.3569647 -0.08368285
0.039797414 0.19375272 0.1574768 0.044386238 0.1461347 0.035645563 0.14454475 0.2050152
0.2796661 0.19255757 -0.07092223 0.115108185 0.28373957 -0.17533757 0.24235463 -0.100182146
0.29240906 -0.06310437 0.10630585 0.17496254 0.10423572 0.3160189 0.19186755 0.1805165
0.31643224 0.054266665 0.23932904 -0.022477148 0.19135499 0.2549428 0.37639225 0.3201542
-0.05412298 0.1894151 0.11172715 -0.014243609 -0.07433217 -0.06869769 0.079039276 -0.08949763
0.37359384 -0.16757418 0.045930594 0.15757094 0.42981744 -0.09196065 0.017784258 0.035559554
0.04775388 -0.07492182 -0.13334765 0.027494766 0.32735142 0.33725217 0.24188192 0.12398595
0.03788349 0.11968661 -0.0757126 0.29113382 0.095802754 0.2809504 0.13842414 -0.11409852
0.12379417 0.10485812 0.02215842 0.20036809 0.24380933 0.2722654 0.06611691 -0.07992317
0.051950216 0.4034129 0.24447832 0.0005722752 0.3181212 0.2101798 0.123316295 0.33125737
0.29289806 0.23047408 0.17687953 0.21175842 -0.13164464 0.03816821 0.20467861 0.21648605
00000000: 95fd 4a3c 86e7 6e3e 584d b13e 81c1 3ebe
00000010: 1554 413d 0050 dcbd e75a f1bd b8f6 863e
00000020: 1750 2b3d 0303 923d 2846 e03d 003b b23e
00000030: 4836 29be b9e4 903e 399c ca3d 4159 243e
00000040: df30 323d 6950 06be bff3 ae3e 0db7 20bd
00000050: c5f8 02bd c8a4 193d ceb8 453e 357e 653e
00000060: d5cf 913e 7d2c f0bd 159c 8d3e dd51 843d
00000070: 4d09 cabd 6c6f 473e f366 483d 883a d3bd
00000080: d011 e5bc 66ca e2bd 17a5 ffbd 1229 453d
00000090: 93b4 0dbe fd2b 30be 14c4 b63e ea61 abbd
000000a0: 9d02 233d 1d67 463e 9941 213e 58ce 353d
000000b0: 56a4 153e 1501 123d 8a03 143e 81ef 513e
000000c0: 6530 8f3e d02d 453e ad3f 91bd d7bd eb3d
000000d0: 5046 913e b18b 33be d02b 783e 4c2c cdbd
000000e0: a4b6 953e dd3c 81bd e2b6 d93d 6129 333e
000000f0: 8a79 d53d 3bcd a13e ed78 443e 51d9 383e
00000100: 6803 a23e b946 5e3d ac12 753e ff21 b8bc
00000110: 90f2 433e dd87 823e 7cb6 c03e 40eb a33e
00000120: 0fb0 5dbd 08f6 413e 34d1 e43d 075e 69bc
00000130: 773b 98bd 60b1 8cbd 58df a13d 894a b7bd
00000140: b147 bf3e 9198 2bbe b821 3c3d 475a 213e
00000150: 0811 dc3e de55 bcbd 4bb0 913c e5a6 113d
00000160: 9399 433d 9c70 99bd 498c 08be b43c e13c
00000170: 9b9a a73e 51ac ac3e e5af 773e 59ec fd3d
00000180: b82b 1b3d 411e f53d 350f 9bbd 7e0f 953e
00000190: 3c34 c43d bbd8 8f3e 0fbf 0d3e 7cac e9bd
000001a0: cc87 fd3d dbbf d63d 9385 b53c 4b2d 4d3e
000001b0: 27a9 793e 5f66 8b3e 4d68 873d c2ae a3bd
000001c0: c0c9 543d 238c ce3e 8658 7a3e bd04 163a
000001d0: c8e0 a23e 6039 573e 418d fc3d 919a a93e
000001e0: bcf6 953e 6601 6c3e e81f 353e 33d7 583e
000001f0: dacd 06be 4556 1c3d 4597 513e 85ae 5d3e

linear2.weight f4 [79, 128]
-0.045123626 0.15342239 0.07387478 -0.06583944 0.2741673 0.23165703 0.40080476 0.043288138
0.01961675 0.09437897 -0.005707497 -0.11628383 -0.33334965 0.35577717 -0.07366569 -0.052191075
-0.011937687 0.021901669 0.12017583 -0.1242474 -0.035690136 -0.049655724 0.0625179 0.0770062
-0.036563087 0.029954271 -0.07212515 0.33488616 0.03669627 -0.025849827 -0.20462641 -0.03095023
-0.2078886 0.0020543847 0.11309805 0.24311389 0.026434757 0.0049312995 -0.05583528 -0.08295452
0.15657629 -0.21398064 -0.14372069 -0.11464268 0.25749758 0.063083984 0.025580099 -0.10577548
0.54003924 0.13921106 -0.109721206 -0.1763575 -0.23089914 0.11314035 -0.026170075 0.05985756
-0.22689846 -0.025036842 -0.1031353 -0.020318935 -0.12576285 0.093124 0.24486826 -0.08229273
0.1850594 0.10946017 0.08904204 -0.16441211 0.13867658 -0.08371102 0.43264246 -0.22212183
-0.17653883 0.065614715 0.28155544 0.10960796 0.2390725 0.09345542 0.052370276 0.1577563
0.048108865 0.022674102 -0.09257198 0.35226876 -0.2632945 0.016952317 -0.12786469 -0.07853819
-0.15999907 0.15482368 -0.07939837 -0.21302477 0.09624392 -0.3171228 -0.021191366 -0.17710538
0.12230166 -0.120972805 -0.046868097 -0.010144681 0.04831016 0.05494994 0.005388095 -0.15079947
0.19108258 0.2688928 -0.14892836 0.3809535 -0.00350016 0.12127705 0.34008065 -0.018525423
-0.061137617 -0.14986748 0.21874075 0.05845265 -0.063260004 0.120660365 -0.001856404 0.1715751
-0.096217796 -0.103096135 0.05652831 0.5815789 0.054488413 0.34823176 0.03983014 -0.24796107
-0.038335912 0.01046777 -0.068124965 0.0646403 -0.102839954 -0.078295864 -0.060236253 0.0032250183
-0.07704073 0.036013514 -0.07203835 -0.053817745 -0.047141273 0.055767972 0.015898293 -0.08338263
0.036626227 0.060817394 0.019285388 0.06641586 -0.028020734 0.041981086 -0.082266785 -0.08793714
-0.011510007 -0.06279719 0.028985638 0.024364451 -0.044419434 0.01932312 -0.07918923 -0.014891263
0.054151848 -0.038676254 -0.00026546876 -0.04911872 -0.06460258 0.022083312 0.028527169 0.04600121
-0.011608422 -0.033713378 -0.04087175 -0.001345548 0.034172975 -0.07243542 0.043554228 -0.040706664
-0.06594944 -0.036253348 -0.028344397 -0.024463048 0.04641785 -0.011868429 -0.01743457 -0.069973044
-0.064328775 0.049309704 -0.054128125 0.05747908 -0.004792467 -0.04419676 -0.036623117 -0.10652622
0.02885691 -0.08998662 -0.11080994 -0.09631685 -0.10604073 -0.056570213 0.0088569615 -0.123232216
-0.0077908817 0.024492012 0.041385546 -0.031883173 -0.09378921 -0.019992962 -0.07925898 -0.038798608
-0.1060128 -0.085352175 -0.020065464 -0.107843705 0.040622305 -0.034306202 -0.08179524 0.051566675
-0.071205385 0.027173206 0.010282004 0.020103475 -0.0083076535 -0.04318285 -0.009068937 0.048874736
0.043849636 0.02343989 0.059301786 -0.059858277 -0.038968142 -0.090783305 -0.0053239954 -0.09369737
0.053496134 -0.08976235 0.025025286 0.06842651 -0.11549713 -0.027359653 -0.08268017 -0.024975762
-0.0897844 0.011946054 -0.029565686 -0.08502203 -0.016045107 -0.018820908 -0.05686679 -0.09181923
-0.039217293 0.03363486 -0.103022106 -0.10474907 0.05166396 -0.04853158 0.04742207 0.010435299
00000000: 8dd3 38bd c21a 1d3e a94b 973d d4d6 86bd
00000010: a85f 8c3e 8037 6d3e 4836 cd3e e74e 313d
00000020: 4eb3 a03c c349 c13d f405 bbbb 3726 eebd
00000030: ceac aabe 6d28 b63e 0ade 96bd 4fc6 55bd
00000040: 4a96 43bc 216b b33c bf1e f63d 6c75 febd
00000050: d22f 12bd cd63 4bbd 6209 803d 6db5 9d3d
00000060: 2dc3 15bd a962 f53c 5ab6 93bd 3376 ab3e
00000070: d44e 163d 04c3 d3bc 9689 51be 568b fdbc
00000080: c0e0 54be dba2 063b f39f e73d d9f2 783e
00000090: b48d d83c bd96 a13b 89b3 64bd 0fe4 a9bd
000000a0: 8955 203e be1d 5bbe 842b 13be c8c9 eabd
000000b0: b9d6 833e 2d32 813d 5b8d d13c d1a0 d8bd
000000c0: 0340 0a3f 588d 0e3e 83b5 e0bd 0f97 34be
000000d0: d370 6cbe 21b6 e73d a062 d6bc 332d 753d
000000e0: 1258 68be 101a cdbc 9a38 d3bd e573 a6bc
000000f0: fac7 00be ccb7 be3d bfbe 7a3e 1789 a8bd
00000100: 3680 3d3e a72c e03d ac5b b63d a65b 28be
00000110: 3c01 0e3e af70 abbd 5083 dd3e e873 63be
00000120: 98c6 34be 0261 863d 0928 903e 237a e03d
00000130: 6ccf 743e 8e65 bf3d 3782 563d de8a 213e
00000140: cd0d 453d 0abf b93c 6196 bdbd 925c b43e
00000150: 89ce 86be 96df 8a3c f6ee 02be a1d8 a0bd
00000160: ccd6 23be 198a 1e3e 9d9b a2bd 2a23 5abe
00000170: 881b c53d eb5d a2be 8499 adbc 1d5b 35be
00000180: 4b79 fa3d 97c0 f7bd c3f8 3fbd e035 26bc
00000190: e0e0 453d 3013 613d 9e8e b03b 2d6b 1abe
000001a0: 27ab 433e 51ac 893e ad80 18be 560c c33e
000001b0: f162 65bb 1a60 f83d 0d1f ae3e a1c2 97bc
000001c0: 706b 7abd dc76 19be 93fd 5f3e 0c6c 6f3d
000001d0: 768e 81bd c81c f73d 9552 f3ba 62b1 2f3e
000001e0: d60d c5bd 1124 d3bd 3b8a 673d 5be2 143f
000001f0: 3e2f 5f3d 6f4b b23e ee24 233d 82e9 7dbe
00000200: 1e06 1dbd 0281 2b3c 1a85 8bbd 2262 843d
00000210: c19d d2bd 9559 a0bd 4aba 76bd d45a 533b
00000220: 88c7 9dbd e882 133d d888 93bd ff6f 5cbd
00000230: 3517 41bd f56c 643d 233d 823c 83c4 aabd
00000240: 6205 163d a91b 793d 64fc 9d3c 0a05 883d
00000250: bd8b e5bc 5cf4 2b3d 7d7b a8bd 6318 b4bd
00000260: 7894 3cbc d09b 80bd 4a73 ed3c f597 c73c
00000270: 27f1 35bd 854b 9e3c f72d a2bd 7cfa 73bc
00000280: 54ce 5d3d fe6a 1ebd 9d2e 8bb9 b630 49bd
00000290: 5c4e 84bd 10e8 b43c cfb1 e93c c46b 3c3d
000002a0: 4031 3ebc 0a17 0abd 2369 27bd 195d b0ba
000002b0: f6f8 0b3d 0559 94bd eb65 323d 08bc 26bd
000002c0: 8010 87bd 647e 14bd 8232 e8bc bb66 c8bc
000002d0: a520 3e3d cd73 42bc f1d2 8ebc 074e 8fbd
000002e0: cebe 83bd f9f8 493d 74b5 5dbd 2f6f 6b3d
000002f0: 210a 9dbb a907 35bd 1f02 16bd 6b2a dabd
00000300: 5465 ec3c e84a b8bd 52f0 e2bd c541 c5bd
00000310: e22b d9bd 2bb6 67bd ca1c 113c 2c61 fcbd
00000320: a74a ffbb 79a3 c83c e483 293d ee97 02bd
00000330: 8f14 c0bd 48c8 a3bc 8852 a2bd 4aeb 1ebd
00000340: 3d1d d9bd 1fcd aebd 5460 a4bc 29dd dcbd
00000350: 9363 263d a984 0cbd 4384 a7bd 9437 533d
00000360: 21d4 91bd 589a de3c da75 283c 0bb0 a43c
00000370: d31c 08bc 80e0 30bd e195 14bc e030 483d
00000380: ad9b 333d 0305 c03c 6ee6 723d f42d 75bd
00000390: 0f9d 1fbd 99ec b9bd e974 aebb 68e4 bfbd
000003a0: c31e 5b3d 53d5 b7bd d401 cd3c 3323 8c3d
000003b0: c289 ecbd 5a21 e0bc 3954 a9bd f899 ccbc
000003c0: e2e0 b7bd 62b9 433c bd33 f2bc 0820 aebd
000003d0: 0771 83bc 4e2e 9abc 27ed 68bd b80b bcbd
000003e0: 50a2 20bd b5c4 093d 41fd d2bd ae86 d6bd
000003f0: 979d 533d 0dc9 46bd a53d 423d d1f8 2a3c

linear2.bias f4 [79]
-0.05971029 0.00023519267 -0.03872401 0.2674501 0.067667216 -0.092342764 -0.023381498 0.072480455
-0.01582831 0.01970675 0.06308829 -0.09080626 -0.0003805778 -0.016837567 0.01057536 -0.011120191
-0.14580789 0.042922378 0.0065647205 -0.032747608 0.105842575 -0.017711217 0.11767233 0.21319595
-0.06646974 0.0111790225 -0.029736131 0.035268568 -0.0029136736 0.10257794 -0.064151935 0.061349574
-0.003017768 0.010275333 0.0412291 0.056800928 -0.022754557 0.080226414 -0.028257178 0.07425013
-0.06401575 -0.05487607 -0.0561015 0.11151546 0.0028149707 -0.023989238 0.06288595 0.0048741
0.007428852 -0.0029763128 0.024164379 -0.008004937 -0.04746817 -0.0011533758 0.04455537 0.03349641
-0.006973991 -0.036196176 0.021562327 -0.006113514 0.065251164 -0.027678879 0.05780154 0.006485307
0.054598864 0.01267488 -0.04632575 0.055096284 -0.047294542 -0.08395826 -0.009395796 9.047993e-05
0.006124458 -0.06533302 0.00831917 -0.078615 -0.018831797 0.009301234 -0.03839164
00000000: c792 74bd 0d9e 7639 119d 1ebd 38ef 883e
00000010: 1c95 8a3d 341e bdbd 8e8a bfbc a270 943d
00000020: 5faa 81bc 0d70 a13c 6f34 813d a2f8 b9bd
00000030: 4a88 c7b9 f0ee 89bc 4644 2d3c 7631 36bc
00000040: aa4e 15be 60cf 2f3d de1c d73b 5b22 06bd
00000050: fec3 d83d 1d17 91bc 31fe f03d 0a50 5a3e
00000060: 4921 88bd 3828 373c 3099 f3bc c675 103d
00000070: 55f3 3ebb 6214 d23d 1762 83bd b149 7b3d
00000080: bfc5 45bb df59 283c d8df 283d 17a8 683d
00000090: c467 babc bf4d a43d 997b e7bc 7410 983d
000000a0: b11a 83bd bbc5 60bd b0ca 65bd 3862 e43d
000000b0: 5f7b 383b 1485 c4bc 59ca 803d eab6 9f3b
000000c0: ba6d f33b 3e0e 43bb 60f4 c53c 2427 03bc
000000d0: fc6d 42bd df2c 97ba b17f 363d 8833 093d
000000e0: 1486 e4bb 7142 14bd 7aa3 b03c df53 c8bb
000000f0: 67a2 853d d1be e2bc 4fc1 6c3d b382 d43b
00000100: 0fa3 5f3d 4daa 4f3c 12c0 3dbd a4ac 613d
00000110: ecb7 41bd 4ff2 abbd d3f0 19bc 0bc0 bd38
00000120: adaf c83b 52cd 85bd 214d 083c e700 a1bd
00000130: 2445 9abc 3464 183c 8d40 1dbd
