Part-2/Lab 2 - Neural Networks/4gram.pth (torch, 67002 bytes, 5 tensors)

embeddings.weight f4 [79, 10]
00000000: 7900 0b3f 5490 c2bf 9aed 4e40 bea3 8bbe
00000010: e720 aa3e bd58 8b3f 8ae4 8bbe 6608 88bf
00000020: 743e 8f3f bb6c 5cbf dc77 4dbf f918 413f
00000030: 0ff5 3c3f df8e 68be 38a9 363e d3ae a33f
00000040: 20b1 56bf 5fe3 c0bf 187b c0bf f8ae 0040
00000050: e1e9 87be 1500 33be ba35 a6bf dffc cb3e
00000060: 02d1 65bf a251 d0bf 8b80 07c0 9b30 a33d
00000070: fa24 d5be dbc1 583e 565f e7be 332d c7be
00000080: 852a 3c3f 642d 0fbc 06f8 1abe f1f7 2bc0
00000090: f065 c5be f75e ebbe bb46 b13e 434d 433e
000000a0: 3478 0b3c 47a5 ddbf bbab 11bf ec6b 6f40
000000b0: 0da8 db3e ea2a 7fbf e38a 5abf c25c b6be
000000c0: 7250 473f cd6c f3bf 89fb 46bf b453 abbf
000000d0: 277e 973f f340 31be 375f 733d e216 8cbf
000000e0: 5aef c2bf c9f4 0cc0 22d3 1c3f ce1e c53f
000000f0: 36c4 2e3f 12de a3bf f4a3 263e ba5b debf
00000100: 81bc da3f 79b0 3a3f 2a74 b1be 8e0e d8bf
00000110: 0c9c 243f cd16 dc3f c42f 4c3f e52b cf3f
00000120: 79b1 97bf a231 bd3f 1b7e a6bf 8685 72bf
00000130: b580 c3bf b3dc debe b466 6c3f d5e5 ac3f
00000140: 9176 12bf 63fc 093f dcac a4bf 39cd 253f
00000150: 2670 c5bf 6825 85bf 1744 70bf 5299 42be
00000160: 42de e5be 3fc3 6c3e 2ca8 a13e f8ef 713f
00000170: 7a17 1340 9233 d93d 6b60 36be 096e 7abf
00000180: 2f3e 103f 0c59 033f f4b0 2b3f 4d13 e1bf
00000190: a960 07c0 bff6 8bbe ebe1 c13e ef66 3f3d
000001a0: 0245 63bf 710a 6b3f 1c55 abbf 265e be3e
000001b0: 0c44 e33e 6b6f 9f3f cdf9 e3be 015c 15bf
000001c0: 99e5 fe3f 1e2a eabf ecac 833f 97ae e1bd
000001d0: 3504 0abf c740 0840 8983 453e 709c ee3e
000001e0: 08dd 403f d253 313f 2c4d 583e 48f0 c0bf
000001f0: 3bb8 03c0 821e e1bd 4758 5dbf 19e9 b73e
00000200: d53c 96bd d571 4a3f 4056 4e3e fff7 80bf
00000210: 5e11 3e3f 5c12 86bf 1134 4cbf ec09 0640
00000220: 0604 0ac0 a4f9 28bf 0c5f 523f 2402 953f
00000230: 6ba5 39c0 9380 363d 0765 cebd e1f7 0040
00000240: 708a 50bf f382 99bf bb05 b0bd 44ec 03bf
00000250: b49f 903f 931c 933e a74a aebf b2c9 223d
00000260: fcae 843f ed64 0cbd 395a 6c3f 41ad d73f
00000270: 4ef5 a9be 0ecd 67bf d2d4 04be 7d23 ddbe
00000280: dbc0 713e 89d3 a83f 109f e43d 93b8 abbe
00000290: 4b8f 53bf 1fa6 923f bdf6 24be 2afb eabf
000002a0: da9f 4d3f 6e9f 77bf 263a e43e d380 4a3f
000002b0: 5a45 3fbf 7884 d83e bb8e ffbd 62b5 88bf
000002c0: 2d7d 813f 3d53 5e3e 3f9d f7bd ef66 623f
000002d0: ac1a 053f 31b6 92be 21cd 44bf 7d1d f83c
000002e0: bd36 e2be 5331 963f c6f9 0bbf a502 f93e
000002f0: e931 8f3f 2e60 51bf 9ae8 5a3f d200 babf
00000300: c28f d83d 2198 66bd 48bc 28bf fd90 243f
00000310: 3712 c63d 3b44 a63f 2a87 833f 3be1 e2be
00000320: c493 143c 31a8 0c3e 512b 463d 1de3 fc3e
00000330: 5cc3 0440 a235 2b3f 27b5 84bf a965 01bf
00000340: 4872 48bf 3097 c43e 4712 d63f d943 1bbf
00000350: e33f 44bf af31 6e3e bf98 a03f dfa0 1f3f
00000360: 45fa 07bf 1aa1 5cbe 0a6c b3be 3db0 b73d
00000370: 8717 923f fc88 87bd 669d 7f3f 3d46 9a3e
00000380: 92cf 50bf 375f 583f 0d9b 97be 1f05 fabe
00000390: 50ff 3a3f da56 053f 28b5 f63f a1b3 adbf
000003a0: 89f3 6dbf 876d 7e3f 6cc1 3abf 1bb0 593e
000003b0: 2aeb 05be 2c54 283e 46ba 8f3e cf1d ddbf
000003c0: 022f c9be 619a 36bf 7a69 1bbe 9e1a 453f
000003d0: 1045 7abe dfe3 42bc afd8 713e 3c81 0abf
000003e0: 299e d3be 3ce5 293f 4be0 dcbf e4c5 6f3f
000003f0: 3e03 0b3f 6831 44bf f2be 513d 1af4 c13e
0.54297596 -1.5200295 3.233252 -0.27273363 0.33228227 1.0886456 -0.273228 -1.0627563
1.1190934 -0.8610341 -0.80261016 0.7542873 0.7381143 -0.22710751 0.1783799 1.2787727
-0.8386402 -1.5069388 -1.5037565 2.0106792 -0.26545623 -0.174805 -1.2985146 0.39841363
-0.89772046 -1.6274912 -2.1172206 0.07968255 -0.41629773 0.211677 -0.45189923 -0.38901672
0.7350238 -0.008738849 -0.15133676 -2.6870081 -0.38554335 -0.4597089 0.34624276 0.19072442
0.008512545 -1.7316064 -0.56902665 3.740962 0.4290165 -0.99674857 -0.85368174 -0.35617644
0.77857125 -1.9017578 -0.7772756 -1.3384919 1.1835374 -0.17309932 0.059416976 -1.0944483
-1.5229294 -2.2024405 0.61259663 1.5400026 0.68268144 -1.2802145 0.1627348 -1.7371743
1.7088777 0.72925526 -0.3465894 -1.6879442 0.6430061 1.7194458 0.79760385 1.618527
-1.1851035 1.4780772 -1.3007234 -0.9473499 -1.5273653 -0.43527755 0.9234421 1.3507639
-0.5721217 0.53900737 -1.2865252 0.6476627 -1.542485 -1.040204 -0.93853897 -0.190038
-0.44896132 0.23121355 0.31573617 0.9450679 2.298308 0.106055394 -0.17810218 -0.9782415
0.56344885 0.5130775 0.67066884 -1.7584015 -2.1152747 -0.2733669 0.37867674 0.046729024
-0.8877717 0.9181281 -1.3385348 0.37181205 0.44387853 1.2455877 -0.4452652 -0.5834351
1.9913818 -1.8294103 1.0287147 -0.110196285 -0.5391267 2.1289537 0.19288458 0.46603727
0.75337267 0.69268525 0.21123189 -1.5073328 -2.0581195 -0.10992147 -0.86462826 0.35920027
-0.073358215 0.79079944 0.2015009 -1.0075682 0.7424525 -1.0474353 -0.7976695 2.0943556
-2.1564956 -0.6600592 0.8217628 1.1641278 -2.9007213 0.04455621 -0.10077863 2.0151293
-0.8146124 -1.1993088 -0.08594843 -0.5153239 1.1298738 0.28732738 -1.3616532 0.039743133
1.0365901 -0.034275938 0.9232517 1.6849748 -0.33194965 -0.90547264 -0.1297181 -0.43191138
0.23608725 1.3189555 0.11163151 -0.33539256 -0.8264052 1.1456946 -0.16109748 -1.8357899
0.8032204 -0.96727645 0.44575614 0.7910282 -0.747152 0.42288566 -0.124783956 -1.0680354
1.0116326 0.2171144 -0.12090539 0.88438314 0.51993823 -0.28654626 -0.768755 0.030287499
-0.44182387 1.1733803 -0.54678 0.4863483 1.1187106 -0.81787384 0.8551117 -1.45315
0.105742946 -0.056297425 -0.65912294 0.64283735 0.09671443 1.2989572 1.0275624 -0.44312462
0.009068433 0.13736035 0.048381153 0.49392024 2.0744238 0.6687871 -1.0367783 -0.50545746
-0.7829938 0.38396597 1.6724328 -0.606504 -0.76659983 0.2326114 1.2546614 0.62354845
-0.53116256 -0.2154583 -0.35043365 0.08969162 1.141343 -0.066179246 0.99849546 0.30131713
-0.8156673 0.84520286 -0.29610482 -0.48832032 0.73045826 0.5208565 1.9274035 -1.3570443
-0.9294973 0.99385875 -0.7295139 0.21258585 -0.13077989 0.16438359 0.28071803 -1.7274722
-0.39293677 -0.71329314 -0.15176955 0.7699374 -0.24440408 -0.011895149 0.23617814 -0.54103446
-0.41331604 0.6636541 -1.7255949 0.9366133 0.5430182 -0.7663789 0.05120749 0.37881547

linear1.weight f4 [128, 40]
00000000: e460 cdbc 763c ad3c 0c7e a1bd 7a50 9dbc
00000010: d513 2a3e 4589 e5bc 941a a6bd 239f 12bd
00000020: 1bb3 e43d d0a5 8a3e c39f 32be 3a40 1fbe
00000030: 6f0a ad3d 6390 1b3e 3c19 893e 261d e7bd
00000040: d9f2 1ebd dfed 43be 5cc5 78bd 6322 a0bd
00000050: 4d81 6d3e aecd 1dbe 7eed 1a3e 3548 15bc
00000060: 8799 5a3d 21a6 a53d 47af 5c3b 395e 58bd
00000070: 228c d43d 4a9a 083e 6996 98bd 065e 323e
00000080: 130f cb3b 90bf 373d baee 27be b087 1abd
00000090: dcf2 893d b90b 03bc ac2c 263e 68d7 883c
000000a0: 382e e43d 0c15 c5bd 3f73 64be 1cd5 28bd
000000b0: f121 12bb 0076 14be 872d 27bd 0bc1 513d
000000c0: a385 b63d a0cc 083e fbfa 8ebd f4bc 243e
000000d0: d9c5 ed3d 439f b73c c5c6 38bd fd29 1d3e
000000e0: ed31 06be dc70 b8bb 7835 dc3d 7e8e 273d
000000f0: 89e1 1d3e 3117 0cbe 6300 923e 4bb0 8e3d
00000100: 86b4 3d3c 60cb e4bd 6954 0fbe 7aae ffbd
00000110: d705 0abe 44ea 9abc 6049 33be 4d12 cdbd
00000120: e3f4 483d f1bd 843e 19f9 29be a637 46be
00000130: 49ee a2be 5891 1cbe 0bae a4bd 153e 33be
00000140: ea85 6d3d 7314 ed3d 25dd 453e 76f7 2dbe
00000150: ad59 6abc c8a7 173e 8c4a 0a3e 9a60 14bd
00000160: 83c3 5bbc 479a da3d f8e9 733d 1f2f 89bd
00000170: 6fe1 71be 5e27 463e 8fbd 0f3d 962c 9fbb
00000180: 3776 393d 5f45 363e 091e 9dba 6ac5 483e
00000190: ba86 403e 71f6 563d cde2 273e bb3f 5bbd
000001a0: 8057 7abb 2fa5 8e3e 30ab e43d 5103 1dbe
000001b0: 122d 8b3d f0eb 84bd be12 443d 12b8 3cbe
000001c0: 361b 893e 79e8 09be ec6e 293e 947c 10bb
000001d0: 7dab c53d 3cf7 cebc 15ef e83c 6558 103e
000001e0: f9ec 263d 67b8 953c d510 38bd 427b 643e
000001f0: ad63 cbbc 0754 2cbe 9a97 0ebe 50e7 3d3d
00000200: a2ad 063e c2fa 7bbe 9b1c 133e 7fe7 5e3c
00000210: 762c c7bd 11c9 2b3e 5889 f13d 60c8 3c3d
00000220: 4070 1b3e 812f fa3d 4055 893c 614d 4abe
00000230: 68b6 afbd 252d 8a3d a5d6 4a3e de8d d8bd
00000240: 2740 2a3d 5554 3cbe 123f 18be 6603 1d3e
00000250: 2fd7 16be b680 2dbd 4277 21be f3bf e13c
00000260: bf39 693d 67f5 dabc b58d 803e e1be 123d
00000270: 6eb2 583d 1066 bdbd 71e2 b1bd 09dc f7bb
00000280: 8543 853c 4705 2c3e 16d2 13be f93c 18be
00000290: a342 403c baa1 f63d 2536 dd3d aaec 663d
000002a0: eb41 ca3c 9212 01be 65ba 493e 0b0d a6bc
000002b0: 226b ef3c 3e3a 5b3e 423d 183e 0015 b0bb
000002c0: 7b7e c53d cf35 e3bd 99ec 85bb be26 6cbe
000002d0: 7bc1 9ebd 7b48 f9bd dfbd d03d 97d2 6cbd
000002e0: 67da 1cbe 6a73 9ebd 6785 ebbd 036c 8abc
000002f0: b627 213e 0c10 c2bc 05d2 0bbe 8e20 f1bd
00000300: cde9 d23b 9e47 863e 353d 063d 65b4 60be
00000310: ca5d 0f3e b4d2 263d 6113 1d3c 80aa 083e
00000320: 0d3d 0b3d 78a5 39be 7e81 153e 5d72 b3bd
00000330: 7ae2 9cbd b98d 9ebc 6262 b4bd df59 18be
00000340: 3ad6 af3d 4f0f 8cbd 2849 43be 5252 1d3e
00000350: 0080 9bbd affc 853c fd70 fd3c c128 7ebe
00000360: 8a3e 77be 5f60 583e 6020 df3d 89f8 d53d
00000370: c017 e1bc aa03 39be d3ca 953d e84b 563c
00000380: 600f 27be eba9 f8bd 2184 6ebe eb7c bdbc
00000390: 3695 8b3e f8da 66be db02 57be 4285 5d3e
000003a0: d5f6 2d3d bd0d a03e 16b3 6fbd 89cf f1bd
000003b0: f89d 803d fe12 d03d bb28 813e ad12 64bd
000003c0: 8d96 163e 0270 e93d 6157 4bbd 9bd1 13be
000003d0: 9714 19be 7e6b 9b3d c0ea 74bd 343a 75bd
000003e0: 7bd6 42be a539 f1bd 55df 0cbd 4a02 72bd
000003f0: 530c 613c e0be 8dbd dd16 32be c5f6 85bd
-0.025070615 0.021146994 -0.0788537 -0.019203413 0.16609128 -0.028019557 -0.08110538 -0.035796296
0.11166974 0.2707963 -0.17443757 -0.15551844 0.08449256 0.15191798 0.26777065 -0.112848565
-0.038805816 -0.1913371 -0.06073509 -0.07819059 0.23193856 -0.15410492 0.15129659 -0.009111454
0.05336907 0.08088327 0.003367381 -0.052824233 0.10378291 0.13340107 -0.074505635 0.1741868
0.0061968653 0.044860423 -0.1639966 -0.037727058 0.06735775 -0.0079984 0.16227978 0.016704276
0.11141628 -0.09623155 -0.22309588 -0.041218862 -0.0022298063 -0.14498138 -0.040814903 0.05120949
0.08912208 0.13359308 -0.069814645 0.16087705 0.11610002 0.02241481 -0.045111436 0.15348049
-0.13104983 -0.0056286883 0.10752386 0.040907376 0.15418066 -0.13680722 0.2851592 0.06967219
0.011578685 -0.11171603 -0.13997044 -0.12484451 -0.1347879 -0.018910535 -0.17508459 -0.10013256
0.049061667 0.25926164 -0.1659893 -0.19357166 -0.31822422 -0.15289819 -0.080410086 -0.17504151
0.05798904 0.11576166 0.19322641 -0.1698893 -0.014303607 0.14810097 0.13505 -0.03622494
-0.013413313 0.10673957 0.059549302 -0.06698441 -0.23621152 0.19350955 0.035092887 -0.00485761
0.045278754 0.177999 -0.0011987101 0.19606557 0.18801394 0.05248112 0.16395111 -0.053527575
-0.0038199127 0.278604 0.11165464 -0.15333296 0.06795706 -0.06490314 0.047869436 -0.18429592
0.26778573 -0.13467588 0.1654622 -0.002204691 0.096518494 -0.025264375 0.028434316 0.1409622
0.04075334 0.018276406 -0.044937927 0.22312644 -0.024827803 -0.16828929 -0.13925019 0.046363175
0.13152173 -0.24607375 0.14366381 0.013604998 -0.09725277 0.1677592 0.11793774 0.04608953
0.15179539 0.12216092 0.016764283 -0.1975608 -0.08579713 0.06746892 0.19808443 -0.10573934
0.041565087 -0.18391545 -0.1486781 0.15333328 -0.14730524 -0.042359076 -0.1576815 0.027557349
0.056939837 -0.026728345 0.25108114 0.035826568 0.05290454 -0.092479825 -0.086857684 -0.007564072
0.016267547 0.16798888 -0.1443561 -0.14867009 0.011734637 0.12042566 0.10801343 0.056378044
0.024689635 -0.1260474 0.1970001 -0.020269891 0.02922589 0.21408936 0.14867118 -0.005373597
0.09643265 -0.110942475 -0.0040870425 -0.23061654 -0.07751747 -0.12172028 0.10192465 -0.05781802
-0.15317689 -0.07736857 -0.11500054 -0.016897207 0.15737805 -0.023689292 -0.13654335 -0.117737874
0.0064365626 0.26226515 0.032773215 -0.21943815 0.14000621 0.040728286 0.00958714 0.1334629
0.03399377 -0.18129528 0.14600179 -0.087620474 -0.076603845 -0.019354688 -0.088078275 -0.14878033
0.08585782 -0.068388574 -0.19070876 0.15363434 -0.075927734 0.01635584 0.030937666 -0.24820234
-0.2414495 0.21130513 0.10894847 0.10447795 -0.027477145 -0.18067804 0.07314076 0.013079621
-0.16314459 -0.12141784 -0.2329259 -0.023130855 0.27262276 -0.22544467 -0.20997183 0.21632865
0.042471725 0.3126048 -0.0585204 -0.11807162 0.0628013 0.101598725 0.25226387 -0.055681873
0.14705868 0.11398317 -0.049643878 -0.14435427 -0.1494926 0.07588862 -0.059794188 -0.05986996
-0.1902713 -0.11778573 -0.034392674 -0.059084214 0.0137358485 -0.06921172 -0.17391534 -0.06541208

linear1.bias f4 [128]
00000000: b685 f63d 0267 5a3d 21f2 8e3d 429a d0bc
00000010: 351e 303e 6941 263c 9625 4f3e a828 2c3e
00000020: 5d14 933e 359e b53d 9683 573e 77de dd3d
00000030: 791c 4c3e 05d9 ac3d 6b17 b0bb f4d0 82bc
00000040: 924f 45bc 47c9 573e c723 8b3e e084 f93d
00000050: a2ee 473d d9c8 e33d 99ce 343e 3215 cb3d
00000060: 6696 48bc c71a 5f3e 1ba0 3e3d 29cd cc3d
00000070: d39c a2bd 707d 653d bc1e 853e 7200 0cbe
00000080: ce31 143c d65b 3a3e 1bf3 bcbd 1c61 063e
00000090: 8827 0e3e 8fa0 df3d 9b10 323c 9ae1 363b
000000a0: edcc a93c 061e e4bc 1faa 5e3e c2ab 2f3e
000000b0: 3d83 d33d 9598 533e 2e75 1a3e 1a26 b63d
000000c0: 2ceb 4c3d 58c2 2e3e 04da 2b3c f765 3a3e
000000d0: aede 1a3e 34a8 f6bc 1271 9a3c 1bf0 f03d
000000e0: 0d70 e1bc 0895 843d 6918 793e e7cd 5d3e
000000f0: f39f 4cbd ffe8 483d 75fd 683e fda9 3f3e
00000100: 653e 13bd f293 8b3e 4abb 343e 023c 853e
00000110: dab2 6a3e 63ed 773b 8e7e e43c 37b1 023e
00000120: a5f9 093e 9eec 2c3c 0723 8a3e c20e 9d3d
00000130: 98b0 a2bd 6b5f b13d 465d acbc 2a99 24bb
00000140: a855 313d 1ccd 293e 5ed2 053e 1973 5c3e
00000150: 4f9c c43d 48bc 753e 1ce8 4e3c 2331 513e
00000160: ef7d 1e3e 0b23 043e 340b 7dbd ad3e 513d
00000170: 95ec 203d b152 a1bc 9903 2f3e f42f bdbc
00000180: d491 8dbd 7611 e43c d8e8 733e d03b 3b3e
00000190: 91cd e53d e937 313e c27c 643e ed0a 2c3e
000001a0: 044b 453e 2ea0 093e e7b4 353e 5d8c a43d
000001b0: e8e7 74bd 3f74 a93d 1ac8 093e b2dc cf3d
000001c0: eef6 f8bc 0092 cf3d 87af 70bd 04ac 68bc
000001d0: f512 923e e0c3 b13d 2006 7dbd 6ccf bb3d
000001e0: 9350 a5bc 3792 563e 2426 bbbb 664c 653e
000001f0: 6e38 3a3e c2b7 1bbd 91c7 8d3c d46f 2c3e
0.12037222 0.053320892 0.06979776 -0.02546418 0.17199023 0.010147431 0.20229182 0.16812384
0.28726473 0.08868066 0.2104629 0.108334474 0.19932736 0.08439831 -0.0053738854 -0.015968777
-0.012042897 0.21072875 0.27175733 0.12183547 0.048811562 0.11122293 0.17656936 0.09916152
-0.012242889 0.21787558 0.046539407 0.10000069 -0.07940068 0.05602783 0.2600001 -0.13672045
0.0090450775 0.18199095 -0.09226056 0.13122982 0.13882267 0.10919296 0.010868217 0.0027905465
0.020727599 -0.027846348 0.21744584 0.17155364 0.10327766 0.20663674 0.15083763 0.08893986
0.050028965 0.17066324 0.010488991 0.18202959 0.15124008 -0.030109502 0.018852744 0.117645465
-0.02751925 0.06473738 0.24325718 0.21660577 -0.049957227 0.049050327 0.22752936 0.18717189
-0.035948176 0.2726131 0.1764957 0.26022345 0.22919789 0.0037830702 0.027892377 0.12762915
0.13474138 0.010554461 0.2697985 0.076688305 -0.07943839 0.08660778 -0.02104057 -0.0025115707
0.04329458 0.1658215 0.1306853 0.21528281 0.09600126 0.23997605 0.012628581 0.204289
0.15477727 0.12903993 -0.061778262 0.051085163 0.039288122 -0.01969275 0.17091216 -0.023094155
-0.0691258 0.027840357 0.23819292 0.18284535 0.11220849 0.17306484 0.22313216 0.16801043
0.19266897 0.1344001 0.1774479 0.08034585 -0.059791476 0.08274125 0.13455239 0.10149516
-0.030391183 0.10135269 -0.058761146 -0.014201168 0.28530088 0.08679938 -0.06177342 0.09170422
-0.020180022 0.20954214 -0.005711334 0.22392425 0.18185589 -0.038017042 0.017307075 0.16839534

linear2.weight f4 [79, 128]
00000000: 5a40 293d ecdf debd f2c3 02be bfdb 1dbe
00000010: 6d5f 85bd 51cd 773e e63d 9bbc c01e e9bd
00000020: 7925 b0bd 0702 243e 6f9d d03e bc92 6c3c
00000030: 09ab 233e 32dd 30bd 991d a03e c1b4 c93d
00000040: 1a76 b23d d24d 133e b3fb 8fbc d2e8 a03d
00000050: 13d8 4c3e b786 e5bc 9fdd ccbb 29ba 85be
00000060: bed1 3dbe a138 93bc 82dc c33c 31d7 0fbe
00000070: 32a8 063e 2b88 9dbd 9f03 753e b76e af3d
00000080: 65a8 c63d 5cad 00be 497b 1abd d06b 343d
00000090: da32 14bd 9a44 febd 9627 13be 8549 8a3e
000000a0: 68e9 663e 29a8 873e fda6 443e a382 5e3e
000000b0: 2e09 ed3d bb9c 2d3e 090f 303c 6d52 94bd
000000c0: a47e 20be 2364 4abd 8a9b e1bc f6f9 a73d
000000d0: 4150 713e a178 21bd 563d 21be 98c7 863e
000000e0: 2ef7 4d3e d612 f3bd 79ff cb3e a557 583e
000000f0: f3ee c0bd b3ef 0dbd 90f7 1cbe a247 073e
00000100: edd7 d3bd 36fa c73b 4760 d43c 2701 01bd
00000110: b8db c8bd caf2 98be d8d3 fabd c950 8b3e
00000120: dacc 613e 3a10 92bd 8fdc 2e3c 3951 1a3e
00000130: 7393 03be 9ee0 243d 7f97 c6bb bdf0 b13d
00000140: 123c 53be 9653 d33c 55ee b03e 4830 98be
00000150: 6a9f 6f3e a02f 74be 13d0 6d3e 51be 46be
00000160: 5091 55bd b657 9c3e b20d 1dbe 60b6 3b3d
00000170: d704 f3bd 34d8 28be 73e5 e2bd 34e6 94be
00000180: f08b 5c3e 0474 61be c88d 85bd bee9 e4bd
00000190: aaa9 2a3d 5e24 c2bd d750 44bd 687c 283d
000001a0: f5da 94bd df07 9b3e 0b84 3ebe 0156 25be
000001b0: b35c 57be 00b4 98bd 7825 77be 0494 ac3e
000001c0: ae87 023f 5143 b7bd 8d09 ba3d 7e0b 35be
000001d0: 3d51 503e d615 d83e 1d49 ce3d bae6 733c
000001e0: 08e5 2cbe f4e2 9d3e 758a 3e3e 56fd 8abe
000001f0: 026d 00be 002f 4bbe b936 9c3e de86 37be
00000200: ed83 293d 94c8 f2bb cc61 5dbd 3557 513d
00000210: e9cb 31bd 48b0 9dbd 732b 8bbc f35b c33c
00000220: fde4 0cbd d18d 803c 8255 48bd 2236 34bd
00000230: 45c8 81bd 27c5 96bd 73e5 73bd b61d 81bd
00000240: 0601 22bd ab38 073d c349 ab3c 89df 073b
00000250: 653a 703d 44a1 483d f918 debd 3fbb 0bbc
00000260: 4025 9fbd d4e8 6a3d 439b 63bb a558 873c
00000270: 22df 2f3c 9f43 99bd f2f4 7a3c 9441 a5bd
00000280: 2d38 1e3c 4bc8 b1bb 8fe4 c1bd f830 bbbd
00000290: b15e e33c 7925 f9bc 00b8 40bd 560b 04bc
000002a0: c9f7 4abd ce25 cbbc c420 363d ae09 9abd
000002b0: 2769 b8bd 3c3c 68bd 90e9 333d ee14 f7bd
000002c0: 82f8 583c 1f1c 963b 0dfd 803a 701f 08bd
000002d0: a915 08bd c7fd 03bc 6872 babd b90a 7ebd
000002e0: 4201 99bd f1d2 e9bc cd09 313d e72c 0ebd
000002f0: d9a1 883d 9b2f a3bb aced 90ba cb33 163d
00000300: 6b32 ae3b 0cce eabd e88a d5bd bea2 423d
00000310: 4d28 84bd 40a1 b83c c8e8 0e3c 3a2f 893d
00000320: 766c 5dbd af27 fdbc 8e8d 3f3d c8b4 c2bc
00000330: aa91 43ba 1629 5abc f5a2 a3bd dec5 00bc
00000340: 3cd6 37bd c328 6ebc 11d2 aa3c c2a6 a8bd
00000350: 4ab3 b9bd 4611 273c 09df 4dbd fcd9 aebd
00000360: 77eb f83b b086 383d 2d3e 4bba b62a 073d
00000370: bcf3 b6bd 9235 3f3d b071 733d 6ca3 003c
00000380: 76d0 f6bc 9c07 f53c 2842 57bd 9f5c 4b3d
00000390: 48a2 b5bd 6c0e 0ebc daf9 903c a2cf 0e3d
000003a0: bace a6bc 2f04 fabc 22db 483d 6f33 c3bc
000003b0: b50f 783c 92bd 77bd 8ddb 38bc 2d74 e3bc
000003c0: 6651 e2bc 6d54 d4bd 6455 b7bd a08e 463d
000003d0: d6af 12bd 4370 b33c c044 89bd 937b 0e3d
000003e0: 9597 5cbd 3948 91bd 945b 253d 954e 20bd
000003f0: a9d6 ea3c be95 9fbd d295 c7bd 3df6 273c
0.041321136 -0.108825535 -0.1277006 -0.15415858 -0.06512342 0.24199416 -0.018950414 -0.11382818
-0.08600897 0.16016398 0.40745112 0.014439281 0.15983213 -0.0431797 0.3127258 0.09848929
0.08713932 0.14385155 -0.017576074 0.07856907 0.20004301 -0.028018339 -0.006252005 -0.2611859
-0.18537042 -0.017971339 0.023908857 -0.14046933 0.13150099 -0.076919876 0.23927163 0.08566039
0.097000875 -0.12566131 -0.03771523 0.04404813 -0.03618131 -0.124154285 -0.1437057 0.27009216
0.22549975 0.26495484 0.19204326 0.21729521 0.115740165 0.16954319 0.010745772 -0.07242284
-0.1567331 -0.049411904 -0.027539987 0.08201973 0.2356577 -0.03942168 -0.15746054 0.26324153
0.20113823 -0.11868827 0.39843348 0.21127184 -0.09420576 -0.034652423 -0.15328813 0.1321092
-0.10343919 0.0061028255 0.025924815 -0.03149524 -0.09807533 -0.29872733 -0.12247437 0.27210072
0.22050801 -0.07132001 0.010672702 0.15070046 -0.12849216 0.040253274 -0.00606054 0.08688495
-0.20628384 0.025796693 0.34556833 -0.29724336 0.23400655 -0.23846292 0.23223905 -0.19408537
-0.052140534 0.30535668 -0.15337256 0.045828223 -0.118661575 -0.16488725 -0.1107892 -0.2908188
0.21537757 -0.22016913 -0.06521183 -0.11177395 0.04166571 -0.09479593 -0.047928657 0.041134268
-0.07268325 0.30279443 -0.18605058 -0.16146089 -0.21031456 -0.07456207 -0.24135387 0.33706677
0.5098828 -0.089483865 0.09083853 -0.17680165 0.2034349 0.4220416 0.10072539 0.0148865525
-0.16884243 0.30837214 0.18607505 -0.27146405 -0.12541583 -0.19842148 0.305105 -0.17922541
0.04138558 -0.0074091647 -0.054048344 0.051108558 -0.043407355 -0.076996386 -0.016988492 0.023847556
-0.034398068 0.015692623 -0.04890967 -0.043996938 -0.063370265 -0.073618226 -0.05954499 -0.06304495
-0.039551757 0.033013027 0.020909196 0.0020732603 0.05864944 0.04898192 -0.10844607 -0.00852853
-0.07770777 0.05735095 -0.0034729994 0.016521761 0.010734351 -0.07483601 0.015317189 -0.08069149
0.009656948 -0.005425488 -0.09467422 -0.091401994 0.027755113 -0.030413376 -0.047050476 -0.008059343
-0.049552713 -0.0247983 0.04446484 -0.075213775 -0.09004431 -0.05669807 0.043923914 -0.12064539
0.013242843 0.004580989 0.000984104 -0.033233106 -0.03322378 -0.008056111 -0.091038525 -0.062021945
-0.07470943 -0.028542968 0.043222237 -0.03471079 0.06671495 -0.0049800402 -0.001105716 0.036670487
0.005316069 -0.114650816 -0.10426885 0.047518484 -0.06452999 0.022537827 0.008722492 0.06698461
-0.054058515 -0.030902712 0.046765856 -0.023767844 -0.00074603653 -0.01331546 -0.07990066 -0.007859675
-0.044882044 -0.014536086 0.02085212 -0.082349315 -0.090674 0.010196989 -0.05026153 -0.08537671
0.007596429 0.045050323 -0.00077531004 0.032999717 -0.089332074 0.046681948 0.059434593 0.007851463
-0.030128699 0.029910855 -0.052553326 0.049648877 -0.08868843 -0.008670431 0.017697264 0.034865983
-0.020362247 -0.030519573 0.049037106 -0.023828236 0.015140464 -0.060483523 -0.011282814 -0.027765358
-0.027626704 -0.103676654 -0.08951834 0.04847586 -0.03581222 0.021904116 -0.06702566 0.03478582
-0.053855497 -0.070938535 0.04037054 -0.03913744 0.028666811 -0.07792233 -0.09745373 0.010251579

linear2.bias f4 [79]
00000000: 86a6 8fbd 757b 18bd 195c ab3c 04d1 2c3d
00000010: d088 94ba 7c4c de3c 2491 d03b 7da1 18bc
00000020: 48ee 5d3c 7511 b0bd ef3b 94bd 3dc8 04be
00000030: c6a3 9dbd 79da 103a b65e 16be cb9b 963c
00000040: e3d8 663d 00b0 30bd 5801 603d ecde cfbb
00000050: 0274 c73d 4b99 303e a285 4c3d 4f12 343d
00000060: 1342 70bd d8d8 a23d 694d 333b 6a72 92bc
00000070: b675 bd3d dbea 9a3c 4aad 043c 70f7 c43c
00000080: e31a e43d 7efc e03d 94ab 37bd 77ed 683d
00000090: 00bf 0c3e 7a6f 11bd 127e 8e3d 5687 643d
000000a0: b3fb 65bd 1e6d 9b3c 0b19 f0bd da05 69bc
000000b0: 3716 cdbd 5484 463c fb49 d3bb 0384 b93c
000000c0: 46a5 033d 7fa8 833c 2134 5abd addb c7bc
000000d0: a23c d6bd 8ea8 873d 3f71 c4bc 9f81 083d
000000e0: 2d9a 0dbe 8321 fcbc 6d2a 91bd 20a2 18bc
000000f0: 383a f8bd 9abe 1bbc 39e9 72bd 25df 303d
00000100: 61d4 4f3d b84c 65bd e4a0 75bd 1584 e63c
00000110: e043 c8bb 7b2f fa3d 2f21 453d f77b 95bd
00000120: fa79 5c3b 3630 be3c cc08 8c3c 7062 f53d
00000130: 7a12 a13d a746 26bd 72c4 0bbe
-0.07014184 -0.037227113 0.020917939 0.04219152 -0.0011332277 0.02713608 0.0063649584 -0.009315846
0.01354558 -0.0859708 -0.07237994 -0.1296701 -0.07697253 0.0005525719 -0.14684567 0.018384835
0.056359183 -0.043136597 0.05468878 -0.006343713 0.097389236 0.17245977 0.04993213 0.043962773
-0.058656763 0.07951516 0.0027359372 -0.017876823 0.09250967 0.018910816 0.008097956 0.024043769
0.11137941 0.10985659 -0.044841364 0.05686709 0.13744736 -0.035506703 0.0695764 0.05579313
-0.056148242 0.01897293 -0.117235266 -0.0142225865 -0.10014003 0.01211651 -0.006448028 0.022645956
0.03214004 0.016071556 -0.05327237 -0.024396742 -0.104607835 0.06623946 -0.023979781 0.03332674
-0.13828345 -0.030777698 -0.0708817 -0.009315997 -0.12120479 -0.009505892 -0.05930445 0.043181557
0.05073965 -0.055981368 -0.05996789 0.028139153 -0.006111607 0.122160874 0.04812735 -0.07299035
0.003364204 0.023216348 0.017094038 0.11981666 0.07864852 -0.040594723 -0.13649157
