Part-2/Lab 2 - Neural Networks/4gram.pth (torch, 67002 bytes, 5 tensors)

embeddings.weight f4 [79, 10]
0	0xbeea9aa0	-0.45821095
1	0x3fdb21c5	1.7119681
2	0xbf84463a	-1.0333931
3	0xbead4886	-0.33844393
4	0xbf7ef0fc	-0.9958646
5	0xbe241e7a	-0.16027251
6	0x400082e2	2.0079885
7	0xc01c5858	-2.442892
8	0x3fdf63a2	1.745228
9	0xbe52509b	-0.20538561
10	0x3ea25f9b	0.31713566
11	0x3f613b2c	0.87980914
12	0x3e840793	0.2578703
13	0x3d24a904	0.04020025
14	0xbe81434e	-0.25246662
15	0xbf220ed7	-0.63303894
16	0xbf24c5e9	-0.64364487
17	0x3e199052	0.1499646
18	0xbeaf15c2	-0.34196287
19	0xbf458fb9	-0.7717243
20	0xbf8bd51c	-1.0924411
21	0xbf7e3dc8	-0.9931302
22	0xbfd66ea7	-1.6752518
23	0xbea18f91	-0.31554845
24	0x3f422a23	0.75845546
25	0x3ff0c1b7	1.8809117
26	0x3f934ac0	1.1507187
27	0x3eea4493	0.45755443
28	0x3f2fced2	0.6867496
29	0xbf44c512	-0.76863205
30	0x3dfcd2fc	0.123449296
31	0xbfce031c	-1.6094699
32	0xbfb5e672	-1.4210951
33	0x3f301d16	0.6879438
34	0xbfb532b8	-1.4156103
35	0xbf9530b3	-1.1655487
36	0xbe1c5787	-0.15267764
37	0xbf242bde	-0.64129436
38	0x3f9a1f87	1.2040871
39	0xbf7f7b2d	-0.99797326
40	0x3f563050	0.8366747
41	0xbf79bd82	-0.9755479
42	0x3f433d76	0.76265657
43	0xbfee443e	-1.8614576
44	0xbfc8a8b0	-1.5676479
45	0xbfa110ef	-1.2583293
46	0xbfb8f5df	-1.4450034
47	0x40109ca5	2.2595608
48	0xbf79d177	-0.97585243
49	0x400dd46e	2.2160907
50	0xbf1b72f3	-0.60722274
51	0x3f36e6d5	0.7144597
52	0x3f9cae83	1.2240757
53	0xbf5e5ad8	-0.86857367
54	0x3bcc8872	0.0062418515
55	0xbf8f1f23	-1.1181377
56	0xbf2afd99	-0.6679321
57	0xbff1257b	-1.8839563
58	0x3a56d86e	0.00081957027
59	0xbf828c40	-1.0199051
60	0xbea54488	-0.32278848
61	0x3f72490b	0.94642705
62	0x4022cd05	2.5437634
63	0xbf1009a0	-0.56264687
64	0xbf0ae97c	-0.5426252
65	0xbff21743	-1.8913349
66	0x3e9946fe	0.29936975
67	0xbf860ae4	-1.0472074
68	0xbef98121	-0.4873133
69	0xbf2eb78b	-0.68248814
70	0x3eabf17c	0.33582675
71	0x3f2a347f	0.6648635
72	0xbf44b525	-0.76838905
73	0xbf9690e6	-1.176297
74	0x3f2e3fe3	0.68066233
75	0x3e30e54a	0.17274967
76	0x3ff3e60f	1.9054583
77	0xbfacd5c1	-1.3502733
78	0xbfb937a9	-1.4470111
79	0xbfc69505	-1.5514227
80	0xbedfe79b	-0.43731388
81	0x3f05af3a	0.522205
82	0xbf0cd45c	-0.55011535
83	0x3fc54376	1.5411212
84	0xbe9cd4e2	-0.30631167
85	0xbfdbebeb	-1.7181371
86	0x3eaeb64f	0.34123465
87	0x3ea45593	0.32096538
88	0x3f69d152	0.9133502
89	0x403461c4	2.8184671
90	0xbfefba8c	-1.8728805
91	0x3eb629df	0.3557882
92	0x3fe27875	1.769301
93	0x3e7af5fb	0.24507897
94	0x3f8e2d61	1.1107599
95	0x3ee8cbe3	0.45468053
96	0x3ef3af27	0.47594568
97	0xbf69307f	-0.91089624
98	0x3f7f9819	0.9984146
99	0x3edb5a30	0.42842245
100	0xbed0c0bf	-0.40772054
101	0xbfd56431	-1.6671201
102	0xbeba6259	-0.36403158
103	0xbff8ef86	-1.9448097
104	0xbc22954f	-0.009923293
105	0x3f1a0bd2	0.60174286
106	0xbfd63cf2	-1.6737349
107	0xbf48209b	-0.7817475
108	0xbe3cc364	-0.1843391
109	0x3f2262df	0.63432115
110	0xbe7585cb	-0.23976819
111	0x3f2c9459	0.6741386
112	0x3d31a7b2	0.043372817
113	0x3fd4a286	1.6612098
114	0x3ebe114c	0.3712257
115	0x3f8bed25	1.0931746
116	0x3fd6a79d	1.6769902
117	0x3ecb0a2f	0.39656207
118	0x3fa60033	1.2968811
119	0x3f852ad8	1.04037
120	0xbfb0c779	-1.3810874
121	0x3deea8a3	0.11653259
122	0xbf6c8c20	-0.92401314
123	0xbde7f696	-0.113263294
124	0x3f6428fa	0.89125025
125	0x3f1bd2df	0.6086864
126	0xbfe79966	-1.8093688
127	0x3f074b79	0.5284954
128	0x3f3528fe	0.70765674
129	0xbfa066f2	-1.2531416
130	0xbf340ebd	-0.7033499
131	0x3cf6649c	0.030077271
132	0xbf11e871	-0.569953
133	0x3e4cce19	0.20000495
134	0xbefa820d	-0.48927346
135	0x3e3679fd	0.17819972
136	0xbfc04200	-1.5020142
137	0xbe974782	-0.29546744
138	0xbee81746	-0.45330256
139	0xbedc1796	-0.42986745
140	0x3fa773be	1.3082197
141	0x3fa5bc65	1.2948118
142	0xbf14c25c	-0.5810907
143	0x3ff7dd89	1.9364482
144	0x3f37ddc6	0.71822774
145	0xbf534aa5	-0.82535774
146	0xbfbacb01	-1.4593202
147	0x3f67f212	0.90603745
148	0x3ece8c4b	0.4034141
149	0x3f909d73	1.129805
150	0x3e570d80	0.21001244
151	0x3f100897	0.5626311
152	0xbf8f07be	-1.1174238
153	0xbf6ed69b	-0.9329621
154	0xbfe559da	-1.7918046
155	0xbbd4ea7e	-0.00649768
156	0x3eb5cbbc	0.35507
157	0xbf06c18b	-0.52639073
158	0x3de53070	0.11190879
159	0xbf8c2cfa	-1.0951226
160	0xbf3ab60b	-0.72934026
161	0x3efa9edb	0.48949322
162	0xbe7a5f24	-0.24450356
163	0x3e101e22	0.14073995
164	0xbffa97e5	-1.9577605
165	0x3e88ae56	0.26695508
166	0x3ff735ef	1.9313334
167	0x3ee72d9a	0.4515198
168	0xbc56bc5d	-0.013106433
169	0x3a254ea4	0.0006305969
170	0xbf0920c2	-0.5356561
171	0xbcb9a608	-0.022662178
172	0x400216fb	2.0326526
173	0x401bdc12	2.435307
174	0x3e36952f	0.17830347
175	0xbf8e415c	-1.1113696
176	0xbe80612a	-0.2507413
177	0x3f50c7d2	0.815549
178	0x3f5551ed	0.83328134
179	0x3f7a1b87	0.97698253
180	0xbf02418f	-0.50881284
181	0xbf9a8ec8	-1.2074823
182	0x3eca7312	0.39540917
183	0xbc565e8d	-0.013084066
184	0x3f6edd08	0.93306017
185	0xbf9a8666	-1.2072265
186	0x3ef329f5	0.47492948
187	0x3ff2edec	1.8978858
188	0xbe0f543a	-0.13996974
189	0x3f8a7013	1.0815452
190	0xbd9458df	-0.07243513
191	0x3faeb670	1.3649426
192	0x3f7dba8f	0.9911279
193	0xbf0eb2c6	-0.55741537
194	0x3fb0d2d1	1.3814336
195	0x3f014d3a	0.50508463
196	0xbe0c817a	-0.13721266
197	0xbe5ce31f	-0.21571015
198	0xbebc4869	-0.36773995
199	0xbca2c8fd	-0.01987123
200	0xbf570806	-0.8399662
201	0xbe656125	-0.22400339
202	0x3ebc3311	0.3675771
203	0x3fced3d0	1.615839
204	0x3f31ee0d	0.6950386
205	0xbf9515ec	-1.1647315
206	0x3fb7d7dc	1.436275
207	0x3ebf8669	0.37407234
208	0x3f5d9f21	0.86570936
209	0x3cf15fd0	0.029464632
210	0xbebae1c1	-0.36500362
211	0x3f18fe31	0.59762865
212	0xbfd7c029	-1.6855518
213	0xc009b7d3	-2.1518447
214	0xbf08fc6a	-0.53510153
215	0xbdacec22	-0.08443476
216	0x3fc087ee	1.5041482
217	0xbeedecfa	-0.4646986
218	0x4022aece	2.5419192
219	0x3fba025d	1.4531971
220	0xbf6acfe0	-0.9172344
221	0xbda7b763	-0.08189275
222	0xbf077cf4	-0.5292504
223	0xbf803771	-1.0016919
224	0xbdbc8cc3	-0.09206536
225	0xbfcfa349	-1.6221706
226	0xbf8ff00b	-1.124513
227	0x3fed7cbf	1.8553694
228	0xbf89d607	-1.0768441
229	0x3ff41d34	1.9071412
230	0xbe976a1c	-0.29573143
231	0x3ea2ba37	0.31782696
232	0x3e92b71f	0.28655335
233	0x3ff862fe	1.940521
234	0xbe97122f	-0.2950606
235	0xbe2a26ec	-0.1661641
236	0x3ecb1c6b	0.3967012
237	0xbf242ac1	-0.6412774
238	0xbe21406b	-0.1574723
239	0xbef642d8	-0.48097873
240	0x3f37044d	0.7149094
241	0x4007e535	2.1233647
242	0xbf6f267f	-0.93418115
243	0xbfc09d4a	-1.5048001
244	0x3e6274c4	0.22114855
245	0x3e84afa5	0.25915256
246	0xbf9300cb	-1.1484617
247	0x40317aa4	2.7731104
248	0xbed9b53b	-0.4252108
249	0x3fa0be57	1.2558087
250	0xbd881613	-0.06644835
251	0xbdf2ab7a	-0.11849113
252	0xbf8d49c4	-1.1038136
253	0x3fda2f38	1.704566
254	0x3f63e883	0.8902666
255	0xbff07308	-1.8785105

linear1.weight f4 [128, 40]
0	0x3e1a40fd	0.15063854
1	0xbd53d5ce	-0.051717572
2	0xbd55d19b	-0.05220185
3	0x3e6732d6	0.22577986
4	0x3e2568e0	0.16153288
5	0x3da355d2	0.07975353
6	0xbd05acdf	-0.032635566
7	0xbcfec637	-0.031100376
8	0x3d161621	0.036642198
9	0x3b844477	0.004036482
10	0x3e3ce0c6	0.1844512
11	0x3e2d88c5	0.16946705
12	0x3ccee3f0	0.025255173
13	0xbe01ed67	-0.12688218
14	0x3d6eeff9	0.058334325
15	0xbdf12396	-0.117743656
16	0xbd890195	-0.06689755
17	0x3e79c0a9	0.243899
18	0xbe16326c	-0.14667672
19	0xbc859ca5	-0.016310045
20	0x3d8ff897	0.070298366
21	0xbd53a6d2	-0.051672764
22	0x3e138fc3	0.1441031
23	0x3cb318ac	0.02186235
24	0x3e2ea300	0.17054367
25	0xbe24f327	-0.1610838
26	0xbd6a177d	-0.057151306
27	0x3e49f457	0.19722115
28	0xbdde2eba	-0.10848756
29	0xbd8110b6	-0.063020155
30	0x3d0dc762	0.034613974
31	0xbe404ecd	-0.1878006
32	0xbd3521de	-0.04422175
33	0x3d710179	0.058839295
34	0x3a94cadb	0.001135196
35	0xbe3ed109	-0.18634428
36	0xbe1cf1f5	-0.15326674
37	0x3de7037f	0.11279964
38	0xbd6b0210	-0.057375014
39	0x3a087268	0.0005205036
40	0xbdab1da9	-0.083552666
41	0x3ea31c79	0.3185766
42	0x3e31bf0a	0.17358032
43	0x3e036676	0.12832054
44	0xbe8bbab5	-0.27290884
45	0xbe02c38b	-0.12769906
46	0xbe3de2e9	-0.1854359
47	0xbd91a0cc	-0.07110748
48	0xbdc7ee7a	-0.09762283
49	0xbe54f268	-0.20795596
50	0xbe22328a	-0.15839592
51	0xbe5dd5fa	-0.21663657
52	0xbe9ddb15	-0.3083121
53	0x3d32c975	0.043649156
54	0x3d94b67e	0.0726137
55	0x3d55ae0b	0.052167933
56	0x3da9c93f	0.08290338
57	0x3d7290e6	0.059220217
58	0xbd9a1b16	-0.075246975
59	0xbe10ed39	-0.14152993
60	0xbdb580aa	-0.08862431
61	0x3d136011	0.035980288
62	0xbbc5314b	-0.006017839
63	0x3e27c9ab	0.16385524
64	0xbe265275	-0.16242392
65	0x3dafd901	0.08586312
66	0x3da806f9	0.08204455
67	0x3d633179	0.055467103
68	0x3dfa6d79	0.122279115
69	0xbdf85587	-0.12125688
70	0xbe337604	-0.17525488
71	0x3e3e6f3f	0.18597125
72	0xbe1350b6	-0.14386258
73	0x3cd0d8d6	0.02549402
74	0xbe92d74a	-0.28679878
75	0xbe41db16	-0.18931231
76	0x3e3c8c52	0.18412903
77	0xbc1a866e	-0.009431465
78	0x3e4765db	0.19472449
79	0xbe3e5cf6	-0.1859015
80	0xbe0afaf2	-0.1357229
81	0x3c05520d	0.008137238
82	0xbc8cd15d	-0.017189676
83	0xbda2d76d	-0.079512455
84	0x3c8bf4ca	0.017084498
85	0x3d8b887e	0.06813143
86	0xbdce0f40	-0.100615025
87	0xbccfeba1	-0.025380911
88	0x3de0b911	0.109727986
89	0xbca252de	-0.019814905
90	0x3db10e8f	0.08645355
91	0x3e1b335e	0.15156314
92	0x3e008802	0.12551883
93	0xbd3d77de	-0.046256892
94	0xbd3a5d58	-0.045499176
95	0xbcc8304b	-0.02443709
96	0xbd9ad5ec	-0.075603336
97	0xbd9b6d7f	-0.07589244
98	0xbdbc945f	-0.09207987
99	0x3b83f8dd	0.0040274695
100	0x3c807274	0.015679576
101	0xbdc9eb2d	-0.09859309
102	0xbd89fb6b	-0.06737407
103	0x3de56985	0.11201767
104	0xbdbe8278	-0.09302229
105	0xbdd8499c	-0.10560915
106	0xbd0d4e13	-0.034498286
107	0x3dcb01bf	0.099124424
108	0x3df10843	0.11769154
109	0x3dc365a1	0.095408686
110	0xbd7d926d	-0.06190722
111	0xbd4e7998	-0.05040893
112	0x3e84320c	0.25819433
113	0xbe763339	-0.24042977
114	0x3dd61ffd	0.1045532
115	0x3dffc847	0.12489372
116	0xbe29ffa3	-0.16601424
117	0xbda73bd4	-0.08165708
118	0xbe0a28df	-0.13492154
119	0xbcbb22f2	-0.022843812
120	0x3e3220f8	0.17395389
121	0xbda63b09	-0.08116729
122	0xbe2667db	-0.16250555
123	0xbde770ec	-0.11300835
124	0xbc4e1a97	-0.012579582
125	0xbe2c8e95	-0.16851266
126	0xbbc99c74	-0.006152684
127	0xbcffbce3	-0.031217998
128	0x3e54f398	0.20796049
129	0xbd672533	-0.05643196
130	0x3e234318	0.15943563
131	0xbdc1651b	-0.094431125
132	0x3cb357bc	0.021892421
133	0x3db1f943	0.08690121
134	0xbcc892ab	-0.024484
135	0xbdcfcbf7	-0.10146325
136	0x3d2d45fa	0.042303063
137	0xbdcb0af9	-0.09914202
138	0x3d9c8a39	0.076435514
139	0xbdf09e47	-0.11748939
140	0xbe2a9c3a	-0.16661158
141	0x3dda5922	0.10661532
142	0xbdeea6af	-0.11652886
143	0xbca405da	-0.020022321
144	0x3e030a21	0.12796833
145	0xbdbb9f07	-0.091611914
146	0xbe148632	-0.14504316
147	0x3db3d74f	0.08781301
148	0xbe6fec73	-0.23430042
149	0x3da2b14e	0.079439744
150	0x3dd33e44	0.103146106
151	0x3e108b31	0.14115597
152	0xbcd55f48	-0.02604641
153	0xbe00c0a4	-0.12573487
154	0x3d309b0a	0.043116607
155	0x3dfd2ae8	0.12361699
156	0x3c9abb74	0.018888213
157	0xbe1fa390	-0.15589738
158	0x3dcd19c8	0.10014683
159	0x3db1b2f0	0.08676708
160	0x3d25c78a	0.0404735
161	0x3e111fd7	0.14172302
162	0xbd9d3640	-0.07676363
163	0xbd71681b	-0.058937173
164	0x3d73953c	0.059468493
165	0x3e49f5bc	0.19722646
166	0x3da90a11	0.08253873
167	0xbbe04795	-0.0068444707
168	0x3e42bc0b	0.19017045
169	0x3e1eca7f	0.15506934
170	0xbce8fed9	-0.028441833
171	0xbde07602	-0.10960008
172	0x3e2c1a58	0.16806924
173	0x3dc6e542	0.09711696
174	0x3d42d04b	0.047561925
175	0xbe017339	-0.1264161
176	0xbbc1c3df	-0.005913242
177	0x3d7584ce	0.059941106
178	0x3e66e3d4	0.22547847
179	0xbd6af3b9	-0.05736134
180	0x3d8170c9	0.0632034
181	0xbe30c4b5	-0.17262538
182	0xbd28f32d	-0.041247535
183	0x3ddbd83b	0.10734602
184	0x3e344fcb	0.17608564
185	0xbe105946	-0.14096555
186	0xbe085d9e	-0.13316962
187	0xbd93a058	-0.072083175
188	0xbda9788c	-0.082749456
189	0x3db252a1	0.087071665
190	0x3d94f512	0.07273306
191	0x3dcd0526	0.100107476
192	0xbe7cddcc	-0.24693984
193	0x3ca8cbc3	0.020604974
194	0xbe087f6a	-0.13329855
195	0x3dbc9331	0.09207762
196	0x3e0fc9a9	0.14041771
197	0x3e400666	0.18752441
198	0xbb8b9ec4	-0.0042608697
199	0xbdecc450	-0.11560881
200	0x3d9bcd56	0.07607524
201	0xbd24d412	-0.04024131
202	0x3c51686f	0.012781247
203	0x3d9c1015	0.07620255
204	0xbd1ca012	-0.038238592
205	0xbe1c1e3d	-0.1524591
206	0x3dad1ac5	0.084523715
207	0xbe53c9d2	-0.20682457
208	0x3e834264	0.2563659
209	0xbd32eb3a	-0.04368136
210	0xbdf6f36a	-0.12058146
211	0xbd9fc4b1	-0.07801188
212	0xbe2c971b	-0.16854517
213	0x3db84893	0.089982174
214	0x3dfc2a96	0.1231281
215	0xbe09d178	-0.13458812
216	0xbd886b69	-0.06661112
217	0x3d05e1b3	0.032685947
218	0xbdd51fce	-0.10406457
219	0x3e6ad9ff	0.22934721
220	0x3d230933	0.039803695
221	0xbe281900	-0.16415787
222	0x3decacc0	0.11556387
223	0x3e1a01f6	0.1503981
224	0xbe00a38f	-0.12562393
225	0x3d73b34d	0.059497166
226	0xbd753be0	-0.059871554
227	0x3dbd0c68	0.09230882
228	0x3d0f1ce1	0.03493965
229	0x3de05192	0.10953058
230	0x3bc535b1	0.0060183634
231	0x3e5cd39e	0.215651
232	0xbcc45a6a	-0.023968894
233	0x3e5ecde4	0.21758229
234	0xbc1855f6	-0.009297838
235	0xbe533f62	-0.20629647
236	0x3dbeab56	0.093100235
237	0xbddc7bb4	-0.10765782
238	0x3deda570	0.1160382
239	0x3e136892	0.14395359
240	0xbe3ab449	-0.18232836
241	0x3d95fd15	0.07323662
242	0xbde648d0	-0.11244357
243	0xbd2d39a9	-0.042291317
244	0x3e504d3f	0.20341967
245	0x3d51a32c	0.051181003
246	0x3c6fd8e1	0.01463911
247	0x3d27d5c5	0.04097535
248	0xbd2fcccf	-0.04291993
249	0xbe68cdd6	-0.2273477
250	0xbd71f2f8	-0.059069604
251	0x3bcd5eb0	0.006267391
252	0xbe02aa21	-0.12760212
253	0x3d4b05be	0.049566023
254	0x3e3971cc	0.18109816
255	0xbdfb4f78	-0.12271017

linear1.bias f4 [128]
0	0x3d95f38e	0.07321845
1	0x3d6c47dc	0.057685718
2	0xbd013a67	-0.031549837
3	0xbd6cea89	-0.057840858
4	0x3dba7e31	0.091061
5	0x3e72a1b4	0.23694497
6	0x3e2a06e7	0.16604196
7	0x3e4ef735	0.2021149
8	0xbc7c424e	-0.015396668
9	0xbdd9b158	-0.10629529
10	0xbd62a003	-0.05532838
11	0xbd6bbdcb	-0.057554048
12	0xbd37227a	-0.044710614
13	0x3e3478a5	0.17624147
14	0x3d6f9783	0.058494102
15	0x3e8ab386	0.2709009
16	0x3e5a3abb	0.21311466
17	0xbdcaa41d	-0.098945834
18	0x3e4827ae	0.19546387
19	0x3cdfbaab	0.02731069
20	0x3cee739a	0.029107857
21	0x3e5b4d48	0.21416199
22	0x3e880438	0.2656572
23	0xbd15944d	-0.036518384
24	0x3e1a3f3a	0.15063182
25	0x3cfeaa84	0.031087168
26	0xbd477293	-0.04869325
27	0x3e4c3e19	0.19945563
28	0x3e31184f	0.17294429
29	0x3d393824	0.045219555
30	0x3de5f2a0	0.11227918
31	0x3e2a5b17	0.1663631
32	0x3e76ea48	0.24112809
33	0x3cf43285	0.029809246
34	0x3d200bd7	0.03907379
35	0x3deba7db	0.11506625
36	0x3e045462	0.12922814
37	0x3e0b1aee	0.13584492
38	0xbdbc8dff	-0.09206771
39	0x3e8b2d38	0.27182937
40	0x3dce7d81	0.10082532
41	0x3e670fc6	0.22564611
42	0x3e3896b9	0.18026246
43	0xbc026ede	-0.007961003
44	0x3e47f29d	0.19526143
45	0x3d9283f4	0.07154074
46	0x3e4e3a5d	0.20139451
47	0x3d7fd356	0.062457405
48	0x3e5ef00a	0.21771255
49	0xbda3f3c1	-0.08005477
50	0xbde904d2	-0.113778725
51	0xbdd7a39e	-0.105292544
52	0x3dccdf80	0.10003567
53	0x3c9febf7	0.019521696
54	0x3d1f1a3e	0.038843386
55	0xbc60c241	-0.013718189
56	0x3e969a70	0.294147
57	0x3bc20071	0.005920463
58	0x3ce9f0e8	0.028557256
59	0x3d903ef4	0.07043257
60	0x3ddc34dd	0.1075227
61	0x3e06ea0d	0.13175221
62	0x3dff0ace	0.12453233
63	0x3da6d2cb	0.08145674
64	0x3ccaa036	0.024734598
65	0x3d9ac222	0.07556559
66	0x3d0b8298	0.03406009
67	0x3d92f4c2	0.0717559
68	0xbd91df35	-0.071226515
69	0x3e21432b	0.15748279
70	0x3e500ee3	0.20318179
71	0x3e5083dd	0.20362802
72	0x3e1501c0	0.14551449
73	0xbd421ceb	-0.04739086
74	0x3d503995	0.050836165
75	0x3e35550c	0.17708224
76	0xbd190a75	-0.03736349
77	0x3deef63e	0.11668061
78	0xbd57f613	-0.05272491
79	0x3e1e818f	0.1547911
80	0x3d29af13	0.04142673
81	0x3d47e88a	0.04880575
82	0x3e24f09c	0.1610741
83	0x3e037b8a	0.12840095
84	0xbd03cfc1	-0.03218055
85	0x3db071c7	0.08615451
86	0x3e6aa0eb	0.22912948
87	0x3deda474	0.116036326
88	0x3de23a98	0.11046332
89	0x3e50e5d3	0.20400171
90	0x3dbe8a72	0.0930375
91	0x3e03549a	0.12825242
92	0x3a7bd24b	0.0009606226
93	0xbca0432e	-0.019563284
94	0xbd374826	-0.04474654
95	0x3e09e244	0.1346522
96	0xbcd2befa	-0.02572583
97	0x3e64b04d	0.22332878
98	0x3d9115e1	0.07084251
99	0xbdca76a1	-0.09885908
100	0xbc4d0d71	-0.012515412
101	0x3e00d4c0	0.12581158
102	0x3e28c6df	0.16482113
103	0x3bdc24c1	0.0067182486
104	0xbc3ed06b	-0.01164637
105	0x3e6f4e3c	0.23369688
106	0x3dda778f	0.10667335
107	0x3e36fe58	0.17870462
108	0xbc804ee2	-0.015662614
109	0x3e4037f5	0.18771346
110	0x3e51e8db	0.20498984
111	0x3e6e71da	0.23285618
112	0x3dd17268	0.102268994
113	0x3e26509e	0.1624169
114	0x3df6f7f8	0.12059015
115	0x3deed75e	0.11662172
116	0x3e3e76f1	0.1860006
117	0xbd5f108b	-0.054459136
118	0x3b92655c	0.0044676494
119	0x3e7208d2	0.23636177
120	0x3e83d8cd	0.25751343
121	0x3e513d18	0.20433462
122	0x3d993b48	0.0748201
123	0x3dc5f7e5	0.09666423
124	0xbceb9891	-0.028759273
125	0x3e1fea5a	0.15616742
126	0x3d113741	0.035453085
127	0x3e875a24	0.2643596

linear2.weight f4 [79, 128]
0	0xbe524b18	-0.20536458
1	0xbdb1de0c	-0.0868493
2	0x3d17f94d	0.037102986
3	0x3e68b2c5	0.22724445
4	0x3e5cf6b0	0.21578479
5	0x3dcca01d	0.09991477
6	0xbe2e3bf3	-0.17015056
7	0x3e117221	0.14203693
8	0xba62afef	-0.0008647432
9	0xbd2661cf	-0.04062062
10	0x3e92cf2a	0.2867368
11	0x3e2393cc	0.15974349
12	0x3e7baaf2	0.24576929
13	0xbe29a2bc	-0.16565984
14	0xbdb47e77	-0.08813184
15	0x3e1f8ecb	0.15581815
16	0x3d6000f4	0.05468841
17	0xbd337e57	-0.04382166
18	0x3e208365	0.15675123
19	0xbd352be0	-0.044231296
20	0xbe517a6c	-0.20456856
21	0x3e18672f	0.14883111
22	0xbe13b34b	-0.14423864
23	0xbd16f29f	-0.036852475
24	0x3c101e82	0.008796336
25	0xbe4284de	-0.18995997
26	0xbe816d6e	-0.252788
27	0x3d95982d	0.07304416
28	0x3a2201ff	0.0006180107
29	0x3e5d71d8	0.21625459
30	0x3e4523c5	0.19251926
31	0x3e76a6b2	0.24087027
32	0xbecfed27	-0.4061062
33	0xbe22babe	-0.15891549
34	0x3dca8426	0.098884866
35	0x3d7d51c4	0.061845556
36	0x3ea45c4b	0.32101664
37	0xbe33b115	-0.1754802
38	0x3deb5e2b	0.114925705
39	0xbdf48ccf	-0.119409196
40	0xbea0ed62	-0.3143111
41	0x3ea76af4	0.32698786
42	0x3e5e5301	0.21711351
43	0xbcc2b8c2	-0.02376974
44	0xbe9e1887	-0.30878088
45	0xbdb59fd1	-0.08868373
46	0x3ee05a50	0.43818903
47	0x3ecf668f	0.40507933
48	0xbda51a18	-0.080616176
49	0x3dd6a21b	0.10480138
50	0x3d38a973	0.045083474
51	0xbc94f06e	-0.018181052
52	0xbca5d38c	-0.020242475
53	0xbe257573	-0.16158085
54	0xbde29a50	-0.11064589
55	0xbdcb0635	-0.09913293
56	0xbcbf6262	-0.023362342
57	0xbe75c1c8	-0.23999703
58	0xbe28af3f	-0.16473101
59	0x3dc2d2a9	0.095128365
60	0xbe49f3c8	-0.19721901
61	0x3e11df00	0.14245224
62	0xbcd3b25f	-0.02584189
63	0x3e0c0466	0.13673553
64	0x3e349dd2	0.17638329
65	0xbe509567	-0.20369492
66	0xbe2cbed4	-0.1686967
67	0x3c34c268	0.011032678
68	0x3cc1ecf6	0.023672562
69	0xbd0e1ae3	-0.03469361
70	0x3e904748	0.28179383
71	0x3cb2e8ac	0.021839462
72	0x3cc3aecf	0.023887066
73	0x3cafe7d4	0.021472849
74	0x3c9c0c39	0.019048797
75	0xbde64c3b	-0.112450086
76	0x3ddd5ea9	0.108090706
77	0x3ea1376a	0.3148759
78	0xbe4272d0	-0.1898911
79	0x3e158e4c	0.14605063
80	0x3de645a1	0.112437494
81	0x3e038875	0.12845023
82	0x3e435cff	0.19078444
83	0xbcb4c7a8	-0.02206786
84	0x3e1ddf90	0.15417314
85	0x3e4ea5d7	0.2018045
86	0x3cf1e164	0.02952642
87	0xbe875b42	-0.26436812
88	0x3dfb6b27	0.12276297
89	0xbc70224b	-0.014656614
90	0xbe0e5df4	-0.13903028
91	0x3b9c48ae	0.0047694063
92	0xbd3b1810	-0.045677245
93	0x3d6bdfce	0.057586484
94	0xbd11a4e6	-0.03555765
95	0xbd2654df	-0.040608283
96	0xbe3333dd	-0.17500253
97	0x3db2b762	0.08726384
98	0x3e1fb155	0.1559499
99	0x3ea14d62	0.3150435
100	0x3a9a949b	0.0011793555
101	0xbcc717e3	-0.024303382
102	0xbc3fe29a	-0.011711741
103	0xbe081442	-0.13288978
104	0x3e6d71c7	0.23187934
105	0xbe3dcbb2	-0.18534735
106	0x3ec79cca	0.38986808
107	0xbdeca2de	-0.11554502
108	0xbda3ab7b	-0.07991692
109	0x3e2fdfe5	0.17175253
110	0xbdc3e98d	-0.09566031
111	0xbe2ab1ac	-0.16669339
112	0xbde2ade5	-0.11068324
113	0x3ea8d561	0.32975295
114	0x3e173202	0.1476517
115	0x3ebce7f3	0.36895713
116	0xbdc6ef7b	-0.09713646
117	0xbe857ce1	-0.26071838
118	0xbe001c0c	-0.12510699
119	0x3affa412	0.0019503853
120	0xbe731f65	-0.23742445
121	0x3ef237a1	0.47308066
122	0x3ddf3aba	0.10899873
123	0x3e658f98	0.22418058
124	0x3db41bd7	0.087943725
125	0x3e5ace7c	0.2136783
126	0xbc290804	-0.0103168525
127	0x3d3b4db0	0.045728385
128	0x3c4b6c13	0.012415904
129	0x3d157ee1	0.036497954
130	0x3d804983	0.06264021
131	0xbd23f945	-0.040032644
132	0x3d803cd2	0.062616006
133	0x3c94c883	0.018162018
134	0x3ccfbf22	0.025359694
135	0x3d7d4c6a	0.061840452
136	0x3bee6841	0.0072756116
137	0xbcbe5089	-0.023231762
138	0xbd9fb8b1	-0.07798899
139	0xbdd3421d	-0.103153445
140	0x3d86f03b	0.06588789
141	0x3cffde9c	0.031234078
142	0xbcefd0b4	-0.029274322
143	0xbdd63521	-0.10459352
144	0xbdd960d6	-0.10614173
145	0xbd6bf918	-0.0576106
146	0xbbe2f616	-0.0069263084
147	0xbc31d7d8	-0.010854684
148	0xbdcfad8c	-0.10140523
149	0xbdc37596	-0.09543912
150	0xbd94cd24	-0.0726569
151	0xbd713d3d	-0.058896292
152	0xbddcc991	-0.10780633
153	0xbd8eec87	-0.06978708
154	0xbd96f816	-0.073715374
155	0x3cdd26b1	0.026995989
156	0x3d4d952c	0.05019109
157	0x3cc2e83c	0.023792379
158	0x3d015e16	0.031583868
159	0xbd3483c3	-0.04407097
160	0xbd5c4aba	-0.053782202
161	0x3d1c402b	0.038147133
162	0xbd08763e	-0.03331589
163	0x3c9cae2d	0.019126022
164	0x3d20d0dc	0.039261684
165	0xbd83111e	-0.06399749
166	0xbc2be025	-0.010490452
167	0xbd823d6a	-0.0635937
168	0xbd6e782b	-0.05822007
169	0xbda3ba45	-0.079945125
170	0xbc7d8c70	-0.015475377
171	0xbd6d0056	-0.05786165
172	0xbcaff52c	-0.021479212
173	0xba394859	-0.00070679706
174	0xbbfa4b00	-0.007638335
175	0x3c27fbc3	0.010252896
176	0x3cc74325	0.02432401
177	0x3d01bcaf	0.031674083
178	0xbc9705e3	-0.018435424
179	0xbd04e474	-0.032444432
180	0xbd20fe9f	-0.039305326
181	0x3bfb18c1	0.007662863
182	0x3d060bf2	0.032726236
183	0x3d5a0523	0.053227555
184	0xbd695182	-0.056962498
185	0x3c92b3f8	0.017908081
186	0x3d94df4f	0.07269155
187	0x3bbf814c	0.005844271
188	0x3ca5052c	0.020144068
189	0xbd1df628	-0.03856483
190	0xbc767b7a	-0.015044088
191	0x3d045878	0.032310933
192	0xbdc21eb8	-0.094785154
193	0xbdb6a4fb	-0.08918186
194	0xbd274873	-0.040840577
195	0xbd371c8a	-0.04470495
196	0xbcc70dec	-0.02429863
197	0xbd84db4b	-0.06487139
198	0xbd01d38c	-0.031695887
199	0x3bc5c3ac	0.006035289
200	0xbc13b199	-0.009014511
201	0xbd432bc4	-0.04764916
202	0xbd854cd4	-0.065087944
203	0x3d517586	0.05113747
204	0xbc0eaf37	-0.008708767
205	0x3d1e7d49	0.0386937
206	0x3c9b153e	0.018931028
207	0xbcc02db4	-0.023459293
208	0x3d5f3148	0.054490358
209	0xbcd53c15	-0.026029626
210	0x3c847d16	0.016172927
211	0xbd474026	-0.04864516
212	0xbd811337	-0.06302493
213	0xbdf00b7b	-0.1172094
214	0x3cb2c96f	0.021824567
215	0xbb32232b	-0.0027181606
216	0xbdc55699	-0.09635658
217	0x3c1a089a	0.009401465
218	0xbcc430ed	-0.02394911
219	0xbbd9f616	-0.00665165
220	0x3cf86dd7	0.030325813
221	0x3d23608c	0.039886996
222	0xbd72b686	-0.0592561
223	0x3c2b9931	0.010473535
224	0x3d081c8a	0.033230342
225	0x3bc74cc0	0.0060821474
226	0x3d126ea3	0.035750043
227	0xbcd2013b	-0.025635352
228	0xbce422bb	-0.027848592
229	0xbd9a22f0	-0.07526195
230	0xbcb52acf	-0.02211514
231	0x3d2559c2	0.040368803
232	0xbd889721	-0.066694506
233	0xbd808992	-0.062762395
234	0xbd869874	-0.06572047
235	0xbd5aaa79	-0.05338523
236	0x3d5a8749	0.053351674
237	0x3d7aab8c	0.061198756
238	0x3cc169c3	0.023610001
239	0xbd2e2cf4	-0.04252334
240	0xbda6c0ec	-0.08142266
241	0xbbc06265	-0.0058711045
242	0x3cbfc8e0	0.023411214
243	0x3d7c14e1	0.06154335
244	0x3c2f69b4	0.010706354
245	0xbd3fa4b2	-0.046787925
246	0xbd9e0c92	-0.07717241
247	0xbd99c7b4	-0.075087935
248	0xbca82c2f	-0.02052888
249	0xbda4a8cd	-0.08040009
250	0xbd44d110	-0.04805094
251	0x3c9b1149	0.01892914
252	0xbc460efd	-0.012088534
253	0xbd530f5d	-0.051528323
254	0xbcc23b73	-0.023709988
255	0xbda16ad2	-0.078817025

linear2.bias f4 [79]
0	0xb94e69da	-0.00019685124
1	0xbbb57298	-0.0055373423
2	0xbc69ed04	-0.0142777
3	0x3dfdb93e	0.12388848
4	0x3d88b223	0.06674602
5	0xbae902ff	-0.0017777382
6	0x3d0d6229	0.03451744
7	0xbd01313d	-0.031541098
8	0x3e0f4de8	0.13994563
9	0xbdabd045	-0.08389334
10	0x3cefed1e	0.029287871
11	0xbda5165c	-0.08060905
12	0xbd8bf89d	-0.068345286
13	0xbd9cf153	-0.076632164
14	0x3d0bcee0	0.03413284
15	0x3ab8f97f	0.0014112442
16	0xbd7be7dc	-0.061500415
17	0xbe0851b9	-0.13312425
18	0xbdb3e74d	-0.087843515
19	0xbdb9ae36	-0.09066431
20	0x3d3a5ea1	0.0455004
21	0x3d04399e	0.03228151
22	0x3c9b6557	0.018969221
23	0x3c8f46d6	0.017489832
24	0x3d2f623e	0.0428183
25	0x3c853148	0.01625885
26	0x3da7a3b9	0.081855245
27	0xbc513034	-0.01276784
28	0xbd23ce81	-0.03999186
29	0x3d33ac0b	0.043865245
30	0x3d3b4f08	0.045729667
31	0x3cfdf42f	0.031000225
32	0x3d73aec9	0.05949286
33	0x3d51dbd3	0.05123503
34	0x3e074bda	0.13212529
35	0x3d07c779	0.033149216
36	0xbd44b8d0	-0.048027813
37	0xbc2667a6	-0.010156548
38	0x3d5ac8ae	0.05341404
39	0xbd80e708	-0.06294066
40	0xbd81e41a	-0.06342335
41	0xbda1a6a3	-0.078931116
42	0xbe181bf2	-0.1485441
43	0x3bccd3c7	0.0062508318
44	0xbde5fd89	-0.112299986
45	0xbd3d09a2	-0.046151765
46	0x3cb38a93	0.021916663
47	0x3bc51624	0.0060146023
48	0xbd093b00	-0.033503532
49	0xbb6544d2	-0.0034983647
50	0x3d52b120	0.05143845
51	0xbde216b2	-0.11039485
52	0x3c9530af	0.01821169
53	0x3d3fda30	0.04683894
54	0xbdc90edd	-0.09817288
55	0xbc066adb	-0.008204187
56	0xbd2321d0	-0.039827168
57	0x3c8c8078	0.017151102
58	0xbd4ece0b	-0.050489467
59	0xbe00f9f5	-0.12595351
60	0xbd98b5b8	-0.07456535
61	0x3cc138c6	0.023586642
62	0xbe041649	-0.12899126
63	0x3d3ea9e2	0.04654873
64	0xbcdd0724	-0.026980944
65	0xbb845f28	-0.004039664
66	0xbe1578aa	-0.14596811
67	0xbd5779ed	-0.05260651
68	0xbd49044c	-0.049076363
69	0x3dcaa5b5	0.09894887
70	0xbd8ed1ed	-0.06973634
71	0x3c5762e0	0.013146132
72	0xbc857ae4	-0.01629395
73	0x3db110e9	0.086458035
74	0x3cff4b5a	0.03116386
75	0x3d922a5e	0.07136987
76	0xbaade23b	-0.0013266274
77	0x3ddd3144	0.10800412
78	0xbde15580	-0.11002636
