Part-2/Lab 2 - Neural Networks/8gram.pth (torch, 87482 bytes, 5 tensors)

embeddings.weight f4 [79, 10]
0	0xbe78bb93	-0.24290304
1	0xbf564592	-0.83699906
2	0xbf5406bb	-0.8282277
3	0x3eaac38d	0.33352318
4	0xbf093eb7	-0.5361132
5	0x3eef5a22	0.46748453
6	0xbf474e67	-0.7785401
7	0x3f75c20a	0.95999205
8	0x4007d9bc	2.1226645
9	0xbf586434	-0.845279
10	0x3ca2b73e	0.019862767
11	0xbeefce11	-0.46836904
12	0x3ea09df5	0.31370512
13	0x3f6fdd80	0.9369736
14	0xbe80e9ce	-0.2517838
15	0xbe32ef08	-0.17473996
16	0x3f258868	0.64661264
17	0x3e1d4ace	0.15360567
18	0xbf672e17	-0.903047
19	0x3fe517f2	1.7897933
20	0xbf89cdf2	-1.0765975
21	0x3f49177b	0.78551453
22	0xbe6d4dba	-0.23174182
23	0x3fc2895d	1.519817
24	0x3f09597c	0.5365217
25	0xbf862dca	-1.0482724
26	0x3fba9011	1.4575216
27	0xbef2ca4d	-0.47419968
28	0x3e9bd854	0.30438483
29	0x3dbf1389	0.09329898
30	0xbf349c45	-0.7055095
31	0x40019f42	2.0253453
32	0xbdbce42f	-0.0922321
33	0xbf2eed22	-0.68330586
34	0x402c11f9	2.688597
35	0xbfb7f7b8	-1.4372473
36	0xbf507168	-0.81423044
37	0x3f17ab0a	0.5924536
38	0x3fdb8fcd	1.715326
39	0x3e935ada	0.28780252
40	0x3eeac59a	0.45853883
41	0xbe7fa8e9	-0.24966778
42	0x3dae8298	0.085210025
43	0x3f39517b	0.72389954
44	0xbfb448c2	-1.4084704
45	0xbfadbfac	-1.3574119
46	0xbba6b1b4	-0.005087102
47	0x3f4cee5e	0.8005122
48	0x3d5105a8	0.051030785
49	0x3dcbd8f3	0.09953489
50	0x3fb6c97e	1.428024
51	0xbf7be5ea	-0.98397696
52	0x3fe583c3	1.7930835
53	0x3e91b993	0.28461894
54	0xbecc9068	-0.39953923
55	0x3f7a5fea	0.97802603
56	0x3f08fa98	0.53507376
57	0x3df4a157	0.11944836
58	0x3f29c902	0.6632234
59	0x3f8fadbf	1.1224898
60	0x3f69e226	0.913607
61	0x3efc2a24	0.492509
62	0xbfc094d1	-1.5045415
63	0xbdc9f487	-0.09861093
64	0x3f211140	0.62916946
65	0xbfc0c277	-1.5059346
66	0x401d17f2	2.4545865
67	0x3f762d9c	0.96163344
68	0xbd1dda8b	-0.038538497
69	0xbfa7029d	-1.3047673
70	0xbfc218f1	-1.5163862
71	0x3f57cf01	0.8430024
72	0xbfb10003	-1.3828129
73	0x3fd653b5	1.6744295
74	0xbf6012fc	-0.8752897
75	0x3dbcd721	0.0922072
76	0xbf655b8f	-0.8959283
77	0x3f451773	0.76988906
78	0x3f0bc6ed	0.5460041
79	0xbefd567a	-0.4948004
80	0xbf97ef41	-1.186989
81	0xbf9b4ba0	-1.2132454
82	0xbf7e0ff3	-0.99243087
83	0x3fb6e7e2	1.4289515
84	0xbf104b04	-0.56364465
85	0x3fa8816e	1.3164499
86	0x3e918a61	0.28425887
87	0xbddd4596	-0.10804288
88	0xbfc96652	-1.5734351
89	0xbf94d4bb	-1.162742
90	0xbf78e109	-0.97218376
91	0x3ea65f6a	0.3249467
92	0xbed80ae1	-0.421958
93	0xbf89aee1	-1.0756494
94	0x3fbafa0c	1.4607558
95	0x3fada1b1	1.3564969
96	0xbd4380c4	-0.047730222
97	0x3e54786e	0.20749065
98	0x3fc12e8c	1.509233
99	0x3f3df975	0.74208766
100	0x3e6f222b	0.23352878
101	0x3f12e7df	0.5738506
102	0x400fbc10	2.2458534
103	0xbf29e285	-0.66361266
104	0x3f608bc9	0.87713295
105	0x3fad4c2d	1.3538872
106	0xbf0266b7	-0.5093798
107	0xbe97cd54	-0.2964884
108	0x3d7ffc10	0.062496245
109	0x3e87c823	0.2651988
110	0xbe4813e2	-0.19538835
111	0xbf260197	-0.64846176
112	0xbec81a0b	-0.3908237
113	0xbfa34e90	-1.275835
114	0x3eea4c89	0.45761517
115	0xbf99842a	-1.1993458
116	0x400f1a60	2.2359848
117	0x3f6332f5	0.8874963
118	0xbf3e47b3	-0.74328154
119	0xbf287c75	-0.65814906
120	0x3f326a5d	0.6969355
121	0x3ff4a808	1.9113779
122	0xbf095c62	-0.5365659
123	0x3fb4f034	1.4135804
124	0xbf624cec	-0.88398623
125	0xbde26fc2	-0.11056472
126	0xbf110f1f	-0.566637
127	0x3f98c934	1.1936402
128	0x3d09839d	0.03357278
129	0x3f0bde44	0.54636025
130	0xbdb2ae31	-0.087246306
131	0xbfc7bfce	-1.5605409
132	0xbdc8e8a2	-0.09809996
133	0x3f88e1a6	1.0693862
134	0x3eb0bd57	0.34519455
135	0xbe9c57b5	-0.30535665
136	0xbf3e9815	-0.7445081
137	0xbfdba92c	-1.7161002
138	0xbfb55189	-1.4165508
139	0xbf988bdf	-1.1917685
140	0x3e9a7628	0.3016827
141	0x3ff4fbe7	1.9139374
142	0x3e97d17b	0.29652008
143	0x3ddd3a8a	0.10802181
144	0xbfc51853	-1.5398048
145	0x3b5801e0	0.0032960102
146	0xbe87fd09	-0.26560238
147	0x3f5ca828	0.86194086
148	0x3f9e12dc	1.2349505
149	0xbf955384	-1.1666112
150	0xbe79ac10	-0.24382043
151	0x3e0f4aa3	0.13993315
152	0x3e86588e	0.26239437
153	0x3ee4a209	0.44654873
154	0x3feb168a	1.8366253
155	0xbe1ab854	-0.15109378
156	0x3df9e718	0.12202281
157	0xbff29213	-1.8950828
158	0xbf2ef60a	-0.68344176
159	0xbf9005f5	-1.1251818
160	0x3e915d15	0.28391328
161	0xbd23b3a2	-0.039966233
162	0xbea46c78	-0.32114005
163	0xc0034add	-2.0514443
164	0xbf269f5d	-0.6508692
165	0xbf73f84f	-0.95300764
166	0xbf272164	-0.65285325
167	0x3ed26bab	0.4109777
168	0xbfada7d1	-1.3566839
169	0x3f4b050b	0.7930457
170	0x3e107132	0.1410568
171	0xbecd42a8	-0.40089917
172	0xbf863694	-1.0485406
173	0x3fa5f520	1.2965431
174	0xbd5abbf6	-0.05340191
175	0x3ee5945a	0.44839746
176	0x3c20b6d1	0.009809212
177	0xbefc55ca	-0.49284202
178	0xbf2798ac	-0.65467334
179	0x3fb5dccd	1.4208008
180	0xbe9ffa2b	-0.3124555
181	0x3df3b511	0.1189977
182	0xbead5d65	-0.33860317
183	0xbf42e6c1	-0.7613335
184	0xbfc5109b	-1.5395693
185	0xbe0bd634	-0.13655931
186	0x3f1efff8	0.6210933
187	0xbfc9c05f	-1.5761832
188	0x3f8bf39e	1.0933721
189	0xbf1ad762	-0.604849
190	0x3f7be720	0.98399544
191	0xbfc25fb4	-1.5185456
192	0x3f332b25	0.6998771
193	0x3e364bc1	0.17802335
194	0xbf2273a8	-0.6345773
195	0xbfc05d96	-1.502856
196	0x3f653c28	0.89544916
197	0xbf8fd352	-1.1236365
198	0x3fc2f976	1.523238
199	0xbe30d32b	-0.17268054
200	0xbf89dc29	-1.0770313
201	0xbe875eab	-0.26439413
202	0x3ddc08df	0.107438795
203	0x3e899589	0.268719
204	0x3ff94e77	1.947707
205	0x3eee3ccc	0.4653076
206	0x4000e40b	2.0139186
207	0xbf9bc684	-1.2169957
208	0x3f5936be	0.84849155
209	0x3f85245f	1.0401725
210	0xc003c92d	-2.0591538
211	0x3e2602c9	0.16212
212	0x3fe938e9	1.8220493
213	0x3e904e87	0.28184912
214	0xbf94f853	-1.1638283
215	0x3eeea44c	0.46609724
216	0xbdce2ab1	-0.100667365
217	0xbfdf3966	-1.7439392
218	0x3f7b008b	0.98047704
219	0x3f4928a8	0.7857766
220	0xbf62b830	-0.885623
221	0x3e52241e	0.2052159
222	0x3ff9a9f4	1.950499
223	0x3e3bf489	0.18355002
224	0xbe6cd80c	-0.2312929
225	0xbfaf545a	-1.3697617
226	0xbf16a8f3	-0.58851546
227	0xbada676b	-0.0016662901
228	0xbed7de27	-0.42161676
229	0xbfafc944	-1.3733296
230	0xbf504a37	-0.8136324
231	0x3dc3afb5	0.09554998
232	0x3d5a099a	0.053231813
233	0xbe8d9a8c	-0.27656972
234	0x3f8382e0	1.0274315
235	0xbf69eac0	-0.91373825
236	0xbeb54a9b	-0.35408482
237	0xbf0b397e	-0.543846
238	0x3f870976	1.0549762
239	0x3f8a677b	1.081283
240	0x3ea25feb	0.31713805
241	0xbd9406ef	-0.07227885
242	0x3e5ddfb5	0.21667369
243	0x3fa149a8	1.2600603
244	0x3f2a2e30	0.66476727
245	0xbf475def	-0.77877706
246	0xbf7fbe13	-0.99899405
247	0x3f0aee57	0.5426993
248	0x3f23d479	0.6399608
249	0x3e46f8d0	0.19430852
250	0xbf87e528	-1.0616808
251	0xbee885d7	-0.45414612
252	0xbfe9308b	-1.8217939
253	0xbf9bbdf0	-1.2167339
254	0x3fa5651b	1.292148
255	0x3f98ab4b	1.1927274

linear1.weight f4 [128, 80]
0	0x3c8631f1	0.016381236
1	0xbd9a1a7b	-0.07524582
2	0x3dd8e97a	0.10591407
3	0xbd182abd	-0.037150133
4	0xbdf90e78	-0.12160963
5	0xbc0886b3	-0.008332896
6	0xbbb8003e	-0.0056152632
7	0xbda52518	-0.08063716
8	0x3daec86a	0.0853432
9	0x3d878c93	0.06618609
10	0x3cfe32f8	0.031030163
11	0x3e23b31c	0.15986294
12	0xbd4a8af8	-0.049448937
13	0x3e2b1946	0.1670886
14	0xbd6298e1	-0.055321578
15	0xbd8587ce	-0.06520043
16	0x3d57c651	0.052679364
17	0x3cd13c91	0.025541576
18	0x3d8ce240	0.06879091
19	0xbde19e28	-0.11016494
20	0x3d67bace	0.056574635
21	0x3d01ac7c	0.031658635
22	0x3cbd5a24	0.023114271
23	0x3db6774d	0.089094736
24	0xbda0fb5a	-0.078604415
25	0xbdaae81d	-0.08345053
26	0xbd5911cf	-0.0529955
27	0x3dbeb5c7	0.09312015
28	0xbc89cc06	-0.016820919
29	0x3d070e56	0.032972656
30	0xbde7c18b	-0.11316212
31	0xba5774a4	-0.000821898
32	0xbdcf1120	-0.10110688
33	0x3db07dec	0.08617768
34	0xbd357fb7	-0.04431125
35	0x3dd91f72	0.10601701
36	0x3dc117c1	0.09428359
37	0x3b991668	0.0046718605
38	0x3df2fa12	0.118641034
39	0xbc0b59da	-0.008505309
40	0x3d885e8d	0.06658659
41	0xbde6875e	-0.11256288
42	0xbda67740	-0.08128214
43	0xbb6ec531	-0.0036433453
44	0xbd52575d	-0.051352847
45	0x3de1180e	0.10990916
46	0x3d7cb8b6	0.06169959
47	0xbdb80145	-0.08984617
48	0x3e1b3535	0.15157016
49	0xbdbb57ac	-0.091475815
50	0x3d7201ed	0.059083868
51	0xbc4d8542	-0.012543978
52	0xbd3b2c8b	-0.045696776
53	0xbd61308a	-0.05497793
54	0x3e20fbf9	0.1572112
55	0xbc6a2982	-0.014292123
56	0x3bcfe729	0.006344695
57	0x3e00c947	0.12576781
58	0xbdb07af1	-0.08617199
59	0x383ca342	4.497474e-05
60	0xbc99deb6	-0.018782955
61	0xbd1696cf	-0.036764916
62	0x3d5cd513	0.05391414
63	0x3dd3ba4c	0.10338268
64	0xbdba9949	-0.09111268
65	0xbc9a8ab2	-0.018864963
66	0xbd8ce0f5	-0.06878845
67	0xbafa64e2	-0.0019103552
68	0xbdb6c74a	-0.0892473
69	0x3d9dedfb	0.07711407
70	0xbb6f3be7	-0.003650421
71	0xbcb9373c	-0.022609346
72	0x3d9059cc	0.070483774
73	0x3cc4430c	0.023957752
74	0xb9f25ed3	-0.00046228486
75	0x3cbd3388	0.023095861
76	0x3df10923	0.11769321
77	0x3da62dd7	0.08114212
78	0xbd64fede	-0.055907123
79	0x3d9002de	0.07031797
80	0xbd884a9c	-0.066548556
81	0xbc9ef646	-0.019404542
82	0x3c0ce54f	0.008599593
83	0x3dc1eeab	0.094693504
84	0x3b95ea80	0.0045750737
85	0x3ca5fe7b	0.020262947
86	0xbe33e791	-0.17568804
87	0x3e26a5cc	0.16274184
88	0x3e8a725c	0.27040374
89	0xbca27ec2	-0.019835833
90	0xbe0c0aa1	-0.1367593
91	0x3e969af2	0.2941509
92	0xbd48dc2f	-0.04903811
93	0x3dd152d5	0.10220877
94	0x3e8f1342	0.2794438
95	0x3ac5a2ed	0.0015078463
96	0xbdf9629c	-0.12177011
97	0xbd0b6837	-0.034034934
98	0xbc8e73e2	-0.017389242
99	0xbd68029d	-0.056643117
100	0x3d7efbf4	0.062252
101	0x3d9621e7	0.07330685
102	0x3d01a626	0.031652592
103	0xbb4b700d	-0.003104213
104	0xbdebc453	-0.11512055
105	0xbd9740da	-0.07385416
106	0xbdeef2a5	-0.116673745
107	0xbb770d9f	-0.0037697328
108	0xbc6ac284	-0.014328603
109	0x3dfed4b4	0.12442914
110	0xbd765e17	-0.060148325
111	0x3df79a3c	0.12089965
112	0x3dce7076	0.10080044
113	0x3d862f0b	0.065519415
114	0x3dae7377	0.08518117
115	0xbd4bb915	-0.049737055
116	0xbe08edf8	-0.13372028
117	0x3d402b95	0.046916563
118	0xbe351961	-0.17685463
119	0x3e4156d4	0.18880779
120	0x3d1c40d9	0.03814778
121	0xbd1ee937	-0.03879663
122	0xbe11a594	-0.1422332
123	0xbe42ef3b	-0.19036572
124	0xbc5a99a0	-0.013342291
125	0xbdcdb22f	-0.100437514
126	0x3e3b0647	0.18264113
127	0x3e57d014	0.2107547
128	0x3c4b36b3	0.012403178
129	0xbdc1132d	-0.094274856
130	0x3dc546c7	0.0963264
131	0xbe0a931a	-0.13532677
132	0xbcde7194	-0.027153768
133	0x3db8c6f3	0.090223216
134	0x3cff6645	0.031176696
135	0x3de93823	0.1138766
136	0xbdb6f70f	-0.089338414
137	0x3d6ef26b	0.058336657
138	0x3e278c5e	0.1636214
139	0x3de800fb	0.11328312
140	0xbdb0b80b	-0.086288534
141	0xbc7e4a80	-0.015520692
142	0x3c325c85	0.010886316
143	0xbe0de223	-0.13855796
144	0x3e36e54d	0.17860909
145	0xbd14c73b	-0.036322813
146	0xbe163c16	-0.14671358
147	0x3ce21e4c	0.027602337
148	0x3eb6157d	0.3556327
149	0x3b7316e1	0.0037092494
150	0xbd8b21d4	-0.067935616
151	0xbc3faba1	-0.011698634
152	0xbd4e9753	-0.050437283
153	0xbd57d183	-0.05269004
154	0xbdf363cc	-0.11884269
155	0xbd262549	-0.0405629
156	0x3d5d4777	0.054023232
157	0x3b16d500	0.0023015141
158	0x3ba0a218	0.0049021356
159	0xbe1eda8b	-0.15513055
160	0x3de668ad	0.11250434
161	0xbe5f4526	-0.21803722
162	0x3c9dea1f	0.019276677
163	0x3d1e4788	0.038642436
164	0xbe094ad9	-0.13407458
165	0x3e3b2473	0.18275623
166	0x3bcbcc12	0.0062193954
167	0x3e283b28	0.16428816
168	0xbcfb16b8	-0.030650482
169	0xbe0f8195	-0.14014275
170	0x3b78f9d2	0.0037990701
171	0xbda2b15c	-0.07943985
172	0xbdde3a50	-0.10850966
173	0x3c4ff9ed	0.012693864
174	0xbdd181e9	-0.102298565
175	0xbd51467b	-0.051092606
176	0x3cb34de3	0.021887725
177	0xbd87aad1	-0.066243775
178	0x3dd2d074	0.102936655
179	0xbd3bbbcf	-0.045833405
180	0xbdde486a	-0.10853656
181	0x3e32f6f7	0.17477022
182	0xbcee7031	-0.029106231
183	0x3cf4f9a7	0.0299042
184	0x3e610235	0.21973498
185	0xbda65331	-0.08121336
186	0xbdbf166a	-0.09330447
187	0x3d33b264	0.0438713
188	0x3d3d06f1	0.046149198
189	0xbe2155cc	-0.15755385
190	0xbd697939	-0.057000373
191	0x3e176c9c	0.14787525
192	0xbda4406d	-0.08020101
193	0x3c77d585	0.015126591
194	0xbc912b2e	-0.017720785
195	0x3d05226e	0.032503538
196	0xbd9885f8	-0.074474275
197	0xbcec8b4d	-0.028875018
198	0x3d87e90d	0.06636248
199	0x3d955c8a	0.07293041
200	0x3d076a31	0.033060256
201	0xbd036d59	-0.032086704
202	0x3db99331	0.09061278
203	0x3ddb2aeb	0.10701545
204	0x3d2292a2	0.03969062
205	0xbdc4a132	-0.09601058
206	0x3e4320d6	0.19055495
207	0x3dab10d2	0.083528176
208	0x3db583e8	0.0886305
209	0xbd776ca4	-0.060406342
210	0x3dcd0eac	0.10012564
211	0x3b25c1e9	0.0025292581
212	0x3ab679e6	0.0013921827
213	0xbe258a25	-0.16165979
214	0x3be1aa32	0.006886744
215	0xbd98d850	-0.07463133
216	0x3da4ea17	0.080524616
217	0xbd1676d5	-0.03673442
218	0xbe155714	-0.14583999
219	0xbe10d110	-0.14142251
220	0xbd3c93f1	-0.046039525
221	0xbd7e9bf0	-0.062160432
222	0xbd05f6a1	-0.032705907
223	0x3e1515ce	0.14559099
224	0xbe0dcb8c	-0.13847178
225	0xbd54061e	-0.051763646
226	0x3cf9d007	0.030494703
227	0x3dc06e87	0.093960814
228	0xbc9a568f	-0.018840102
229	0xbd967004	-0.07345584
230	0x3d7741ea	0.060365595
231	0x3cb0bc90	0.021574289
232	0xbdb4656d	-0.08808408
233	0xbc85538d	-0.016275192
234	0xbdcf7aae	-0.10130821
235	0x3d186443	0.037204992
236	0x3c9ab90d	0.018887067
237	0xbe0046fc	-0.12527078
238	0x3d9430c0	0.07235861
239	0xbcd82fe4	-0.026390024
240	0x3bafe2f5	0.0053676316
241	0x3e0b2269	0.13587345
242	0x3ce2f997	0.027706904
243	0x3d35dadb	0.04439817
244	0x3d3162bf	0.043307062
245	0x3d79aca5	0.060955662
246	0x3d1afe7c	0.03784035
247	0x3dcdae4b	0.10043009
248	0x3d9ee50d	0.07758532
249	0xbd8644cb	-0.0655609
250	0xbd421657	-0.047384586
251	0x3d7ba432	0.061435886
252	0xbd2ffc00	-0.042964935
253	0x3d831da9	0.064021416
254	0xbc4b5891	-0.012411253
255	0xbcc0e08c	-0.023544572

linear1.bias f4 [128]
0	0xbcbfb955	-0.023403803
1	0x3daf37f9	0.08555598
2	0x3d53fe44	0.05175616
3	0x3e119ce6	0.14220008
4	0x3bbb1f20	0.0057104975
5	0x3dc1c848	0.09462029
6	0x3a856f88	0.0010180334
7	0x3daefbd5	0.08544127
8	0x3d40f880	0.047111988
9	0x3d8f1897	0.06987112
10	0x3de54c06	0.11196141
11	0x3d8cf645	0.0688291
12	0x3dc43ee3	0.09582307
13	0x3d9b66f8	0.07587999
14	0x3dc3891e	0.095476374
15	0x3de43601	0.11143113
16	0xbca5a5c5	-0.020220647
17	0xbc8c0752	-0.017093334
18	0x3d42c0ee	0.047547273
19	0xbb825954	-0.003977934
20	0x3d6e3f4b	0.05816583
21	0xbd5acfdc	-0.053420886
22	0x3c6ab245	0.014324729
23	0x3c90873b	0.017642608
24	0xbd3245c0	-0.04352355
25	0x3e28e16e	0.16492245
26	0x3d1997f9	0.037498448
27	0x3c4ed289	0.012623438
28	0xbcba66a5	-0.022754023
29	0xbd0d5705	-0.034506816
30	0xbd7573b1	-0.059924785
31	0x3e01901c	0.1265263
32	0x3e14380c	0.14474505
33	0x3e525e71	0.20543839
34	0x3e2fd61b	0.17171519
35	0xbc412211	-0.011787907
36	0xbce9fef0	-0.028563946
37	0x3d8d3902	0.06895639
38	0x3afd9459	0.0019346579
39	0x3e3dc2f3	0.18531398
40	0x3d1fa918	0.03897962
41	0x3c9f1812	0.019420657
42	0x3d8d6442	0.06903888
43	0xbd332607	-0.043737438
44	0x3d876e8f	0.06612884
45	0x3e13bef5	0.14428313
46	0x3d0fb735	0.03508683
47	0x3cf324bf	0.029680608
48	0x3db2654b	0.08710726
49	0x3bc5b6a0	0.0060337335
50	0x3d7ea948	0.062173158
51	0x3e17a39a	0.14808503
52	0x3e06a504	0.13148886
53	0xbd18c2c1	-0.037295107
54	0x3e4c4a58	0.19950235
55	0x3e18420f	0.1486895
56	0x3e264446	0.16236982
57	0x3e00f784	0.1259442
58	0x3d9e2f2a	0.077238396
59	0x3cc4e9b5	0.024037221
60	0x3e034013	0.12817411
61	0xbd0a66ef	-0.03378957
62	0x3e095ef4	0.13415128
63	0x3e3e916f	0.18610166
64	0x3e30bb30	0.17258906
65	0xbb1825fb	-0.0023215997
66	0x3d7cd130	0.061722934
67	0x3e349302	0.17634204
68	0x3e0b88ce	0.13626406
69	0x3dc95a90	0.098317266
70	0x3e17abc1	0.14811613
71	0x3e25c377	0.16187845
72	0x3e2408a8	0.16018927
73	0x3d53b621	0.051687364
74	0x3deb5849	0.114914484
75	0x3e2e5cd2	0.17027596
76	0x3df85137	0.121248655
77	0xbd46f9be	-0.048578016
78	0x3dc9e7f3	0.09858694
79	0xbd07d506	-0.03316214
80	0xbd0e9c4b	-0.03481702
81	0x3db23b80	0.08702755
82	0xbd2cad8a	-0.042157687
83	0x3e1b0a10	0.15140557
84	0x3c863cb0	0.01638636
85	0x3d702e34	0.058637813
86	0x3e36c9bd	0.17850395
87	0x3e3e3757	0.18575798
88	0x3e2bb947	0.16769896
89	0x3e21c376	0.15797219
90	0xbd59aee8	-0.05314532
91	0x3e468f8a	0.19390693
92	0x3e3dbaab	0.1852824
93	0x3d33b121	0.043870095
94	0x3db63b42	0.08898021
95	0x3dc3aed6	0.09554832
96	0x3d5ac06c	0.053406164
97	0x3c8f4116	0.01748709
98	0x3d78d788	0.06075242
99	0xbc3e3754	-0.011609871
100	0x3e027c16	0.12742648
101	0x3e510129	0.20410599
102	0x3c9d608e	0.01921108
103	0x3dc0139a	0.09378739
104	0x3cc4952a	0.023996908
105	0x3dc53769	0.09629709
106	0x3e3e6f28	0.1859709
107	0x3e4d24a6	0.20033512
108	0x3ccd1088	0.025032297
109	0x3e77dd68	0.24205554
110	0x3d7fdcb1	0.062466327
111	0x3d199b57	0.03750166
112	0xbd5b2125	-0.053498406
113	0x3e12aa39	0.14322747
114	0x3e131836	0.14364704
115	0x3e23fed9	0.16015185
116	0x3d2b369d	0.04180013
117	0x3b80e193	0.0039331405
118	0x3e2c7e4f	0.16845058
119	0x3daee960	0.085406065
120	0xbd100120	-0.035157323
121	0x3e020234	0.12696153
122	0xbcb38481	-0.021913769
123	0x3d17b73c	0.03703998
124	0x3d68619f	0.056733724
125	0x3d315d53	0.04330189
126	0x3e05f8e9	0.13083233
127	0x3cca7c50	0.02471748

linear2.weight f4 [79, 128]
0	0x3c82cc10	0.015966445
1	0x3f245df4	0.6420586
2	0xbd33aaea	-0.04386417
3	0x3e5c9a99	0.2154335
4	0x3b08cef9	0.0020875318
5	0x3bd50087	0.006500307
6	0xbd20a0d4	-0.039215878
7	0x3e8e6221	0.2780924
8	0x3cc5d1ee	0.024147954
9	0x3d91123a	0.070835546
10	0x3d9a1bbc	0.07524821
11	0x3df492fb	0.11942097
12	0xbe56bbe2	-0.20970109
13	0xbd504b2e	-0.050852947
14	0x3e479825	0.19491632
15	0x3eea9dd4	0.45823538
16	0xbd47458b	-0.048650306
17	0x3d87aba7	0.06624537
18	0xbda403dd	-0.08008549
19	0x3d02c93b	0.03193019
20	0x3b61d493	0.003445898
21	0x3e46d116	0.19415697
22	0x3db9d627	0.090740494
23	0xbcb8fe90	-0.022582322
24	0xbcabae03	-0.020956999
25	0x3db73509	0.089456625
26	0xbd86deb6	-0.065854475
27	0xbdca05e4	-0.09864405
28	0xbd192d9b	-0.03739701
29	0x3da4b44f	0.08042204
30	0xbc9914c1	-0.018686654
31	0xbb3dc0fa	-0.0028954134
32	0x3d9c7944	0.07640317
33	0x3e214ac1	0.15751173
34	0x3d3fe1fe	0.046846382
35	0x3c2f1d0c	0.010688078
36	0xbe27b76d	-0.16378565
37	0x3e03d2ef	0.12873434
38	0xbd222f2a	-0.03959576
39	0x3de8ce44	0.11367467
40	0x3c07d258	0.008289896
41	0xbdff573a	-0.12467809
42	0x3bffeee5	0.007810461
43	0x3d96bfae	0.07360779
44	0x3cc744b1	0.024324747
45	0xbd99f14e	-0.07516728
46	0xbdc418c3	-0.095750354
47	0x3dce348e	0.10068618
48	0x3e100315	0.14063676
49	0xbd289290	-0.041155398
50	0x3e739b0e	0.23789617
51	0x3df02db2	0.11727466
52	0x3f03d98b	0.5150382
53	0x3c996e2f	0.018729297
54	0x3e8947fe	0.26812738
55	0xbd615576	-0.055013143
56	0x3ca5e177	0.020249112
57	0x3e4c4fa6	0.19952258
58	0x3e23b219	0.15985908
59	0xbd36c49f	-0.044621106
60	0xbd95a614	-0.073070675
61	0x3e1109c8	0.14163888
62	0x3cef7409	0.029230135
63	0xbe0eb675	-0.1393679
64	0xbe1c24f1	-0.15248467
65	0xbd076c05	-0.033062
66	0xbd6a474d	-0.057196904
67	0x3e0eeaba	0.13956729
68	0xbd70e4ee	-0.058812074
69	0xbe15e49c	-0.14637989
70	0x3bbc055f	0.005737945
71	0xbccbd5cb	-0.024882218
72	0xbe06c4a2	-0.13160947
73	0xbd745631	-0.05965251
74	0x3e1318e9	0.14364971
75	0xbd180f0c	-0.037123725
76	0x3d104590	0.03522259
77	0xbddabac8	-0.10680157
78	0xbcf37fcd	-0.029724026
79	0xbdf67ff0	-0.12036121
80	0x3cbf11f3	0.023323989
81	0x3c629e47	0.013831682
82	0xbc4d9d32	-0.012549685
83	0x3e0b43f1	0.13600136
84	0xbdc02486	-0.09381966
85	0xbb926006	-0.0044670133
86	0xbd861dfb	-0.06548687
87	0xbe1e0062	-0.15429834
88	0xbe0b0c5b	-0.13578932
89	0x3ea2f419	0.31826857
90	0x3e61254d	0.21986885
91	0xbdc3589c	-0.09538385
92	0x3e9ac497	0.3022811
93	0x3ea0abd4	0.31381094
94	0xbe0c4870	-0.13699508
95	0xbdc99998	-0.09843749
96	0xbd4f0c4d	-0.05054884
97	0x3cc17317	0.02361445
98	0xbda981af	-0.08276688
99	0x3d189613	0.037252497
100	0x3dbbf65a	0.09177847
101	0x3e54d883	0.20785718
102	0x3d6c0305	0.057620067
103	0x3c80c5a0	0.015719235
104	0x3d1cbf78	0.038268536
105	0xbddede1a	-0.10882206
106	0x3e4662c2	0.1937361
107	0x3c0faf47	0.008769817
108	0xbc9bfdf7	-0.019041998
109	0xbd99b54f	-0.07505285
110	0x3befb6b6	0.007315482
111	0xbdd4851c	-0.10376951
112	0xbd275e0f	-0.040861186
113	0xbcda34b0	-0.026636451
114	0xbdecba02	-0.11558916
115	0x3d99dfda	0.075133994
116	0x3c8d1dd3	0.017226135
117	0xbe430558	-0.19045007
118	0xbe0c2ed0	-0.13689733
119	0x3e886126	0.26636618
120	0xbdf5b57f	-0.11997508
121	0x3dda69e3	0.106647275
122	0xbd930134	-0.07177964
123	0x3cdfb036	0.027305704
124	0xbdc7a658	-0.097485244
125	0x3d0422d6	0.032259785
126	0xba47f5a9	-0.0007627854
127	0xbd44116b	-0.047868174
128	0x3d8cca2d	0.068744995
129	0xbd85dbd4	-0.065360695
130	0x3d78a756	0.06070646
131	0xbd173450	-0.036915123
132	0xbcf67439	-0.030084716
133	0xbdaa21b4	-0.083072096
134	0x3d4bdef6	0.04977318
135	0x3d776fdf	0.060409423
136	0xbd467a80	-0.04845667
137	0xbda54f05	-0.080717124
138	0xbcc62cb0	-0.02419123
139	0xbdcea496	-0.10089986
140	0xbdb2fe49	-0.08739907
141	0xbdbf427c	-0.09338853
142	0xbd2defa3	-0.042464864
143	0x3d8351e5	0.064121045
144	0xbda8242e	-0.08210026
145	0xbd9f8a73	-0.07790079
146	0xbcff4368	-0.031160071
147	0xbdab0ed5	-0.08352438
148	0x3d42ae8c	0.047529742
149	0x3c29d040	0.010364592
150	0x3b6ab26c	0.0035811914
151	0xbd938fa3	-0.07205131
152	0xbd73539e	-0.059405915
153	0xbd4e5230	-0.05037135
154	0x3d6e1de5	0.05813398
155	0xbd8b1616	-0.06791322
156	0x3d6dc70b	0.05805115
157	0x3d4eaa40	0.05045533
158	0xba8fb0bc	-0.0010962705
159	0x3d0034e5	0.031300444
160	0xbcabcf02	-0.020972732
161	0xbd910062	-0.07080151
162	0x3d5223fb	0.051303845
163	0x3d9a37ed	0.07530198
164	0x3d7ad360	0.06123674
165	0xbd8143a7	-0.06311732
166	0xbd79019a	-0.060792543
167	0xbc0a0942	-0.008425059
168	0xbd86f1f3	-0.06589117
169	0xbd7b9abe	-0.06142687
170	0x3d349672	0.04408879
171	0x3cb50247	0.022095812
172	0x3d82a8aa	0.06379826
173	0x3cf5d529	0.03000887
174	0xbd72c527	-0.05927005
175	0xb7b0a4c7	-2.1057565e-05
176	0xbcf9e12e	-0.030502882
177	0x3d386fc5	0.045028467
178	0x3d8138a4	0.063096315
179	0xbb62234c	-0.0034505902
180	0x3d7c4883	0.06159259
181	0x3bbefa7c	0.0058282
182	0x3d870e17	0.06594484
183	0xba166bd5	-0.0005738114
184	0xbd91a42a	-0.0711139
185	0xbd90afc6	-0.07064776
186	0x3c4dd22b	0.012562315
187	0xbda461bb	-0.08026453
188	0x3d876530	0.06611097
189	0x3d47d072	0.048782773
190	0xb9ab6692	-0.00032692082
191	0xbdc91ae5	-0.09819583
192	0xbdacf500	-0.084451675
193	0xbd2b6c2b	-0.041851204
194	0xbda95c90	-0.08269608
195	0xbdbdee00	-0.092739105
196	0xbbd0be24	-0.006370323
197	0x3cd68fc8	0.026191607
198	0x3d1014c9	0.035176072
199	0xbbc2146d	-0.005922845
200	0x3d22f7ea	0.03978721
201	0xbd216165	-0.039399523
202	0x3d0c368c	0.034231707
203	0xbd877dd6	-0.06615798
204	0xbd8110bc	-0.0630202
205	0xbd432c79	-0.047649834
206	0xbd982bd0	-0.074302316
207	0xbdbea1fc	-0.0930824
208	0x3d276e76	0.040876828
209	0x3d0b25bf	0.033971544
210	0xbd29cf80	-0.041457653
211	0xbb02fdbf	-0.001998767
212	0x3b892765	0.0041856044
213	0x3d92d181	0.07168866
214	0xbd3fa0e5	-0.0467843
215	0x3d887675	0.06663219
216	0x3bb496b5	0.0055111297
217	0xbd1f6fb0	-0.038924873
218	0x3d50abf7	0.05094525
219	0xbda1fc0f	-0.079094045
220	0x3cea5fb6	0.028610092
221	0xbd9b8f73	-0.0759572
222	0xbd9acc2d	-0.07558475
223	0x3cc26a9a	0.023732472
224	0xbd79858b	-0.060918372
225	0xbcd8afd1	-0.026451023
226	0xbdab4bd9	-0.08364076
227	0x3cb13996	0.021633904
228	0x3d5ea7b8	0.054359168
229	0x3d117b61	0.035518054
230	0xbd749a9a	-0.059717752
231	0xbc9340fb	-0.017975321
232	0x3d3509ab	0.044198673
233	0xbd38e5c1	-0.045140985
234	0xbd5a8742	-0.05335165
235	0xbd60c01f	-0.05487072
236	0x3d848bd2	0.06471981
237	0x3bd4d283	0.0064948215
238	0x3d80d392	0.06290354
239	0x3d674afe	0.056468002
240	0xbd59c166	-0.053162955
241	0xbccb5d6f	-0.024824826
242	0xbd18c20c	-0.037294433
243	0xbd263da4	-0.04058613
244	0x3d821d0f	0.06353199
245	0x3c82b68c	0.015956186
246	0x3d03572b	0.03206555
247	0xbd883ae3	-0.06651857
248	0xbd76f421	-0.060291413
249	0x3cd9e2c8	0.026597396
250	0xbd90cef9	-0.07070727
251	0x3d14d7c6	0.03633859
252	0xbd82f005	-0.06393436
253	0x3cda7e44	0.026671536
254	0x3d0da9c0	0.034585714
255	0xbcc993a2	-0.02460653

linear2.bias f4 [79]
0	0x3d5e5783	0.054282676
1	0xbdba92dc	-0.091100425
2	0x3baf13b5	0.0053429254
3	0x3ce71d0d	0.028212095
4	0x3dd10750	0.10206473
5	0x3e1e8300	0.1547966
6	0x3d6ffa41	0.05858827
7	0x3c4929f0	0.012278065
8	0xbd7f8957	-0.062386837
9	0x3d3dca83	0.04633571
10	0x3d2baa0b	0.041910212
11	0x3d1b7754	0.037955597
12	0xbd97274a	-0.07380541
13	0x3ce3355c	0.027735405
14	0xbde81379	-0.11331839
15	0xbcf2c2e2	-0.029633943
16	0xbd8184ee	-0.063241825
17	0x3db70b6a	0.08937724
18	0xbcb81651	-0.022471579
19	0x3da344d4	0.07972112
20	0xbd935ce5	-0.071954526
21	0x3d44a8a2	0.048012383
22	0x3dddf73e	0.10838173
23	0x3df8fd10	0.12157643
24	0xbd16f30a	-0.036852874
25	0x3db46ae0	0.08809447
26	0x3e1db662	0.15401605
27	0xbdb41731	-0.08793486
28	0x3d7281a8	0.05920568
29	0x3dd9d63f	0.10636567
30	0xbd021672	-0.031759687
31	0x3dbd6360	0.0924747
32	0x3deb0306	0.11475186
33	0xbd761734	-0.060080722
34	0xbdf797d1	-0.120895036
35	0xbb293099	-0.002581632
36	0xbdadab3c	-0.08479926
37	0xbe037315	-0.12836869
38	0xbbb261de	-0.0054437956
39	0xbd8941e5	-0.067020215
40	0x3c04b6be	0.00810021
41	0xbb59194f	-0.0033126657
42	0x3c36b65a	0.011151874
43	0xbe08beb6	-0.13354
44	0x3cdbb897	0.026821418
45	0xbc95a716	-0.01826815
46	0xbb76f221	-0.0037680941
47	0x3d83e5bf	0.06440305
48	0xbcd60969	-0.026127534
49	0xbc99d327	-0.018777443
50	0x3d414b65	0.047191042
51	0x3bdac3f3	0.006676191
52	0xbd13e85a	-0.03611026
53	0xbd86a72d	-0.06574855
54	0xbd65bbc4	-0.05608727
55	0xbdaef949	-0.08543641
56	0xbde0924c	-0.10965404
57	0xbde5e6bd	-0.112256505
58	0xbd7dd3d2	-0.061969586
59	0xbdd677b0	-0.10472047
60	0xbd92d3ab	-0.07169279
61	0xbdfcbf8c	-0.12341222
62	0x3ccda4ae	0.02510294
63	0xbdab8534	-0.08375016
64	0x3d02b4f5	0.031910855
65	0xbe045c0f	-0.12925743
66	0xbd74cb35	-0.059764106
67	0x3dc3c352	0.09558739
68	0xbc3330a4	-0.01093689
69	0xbde13522	-0.109964624
70	0x3cccf7d5	0.02502052
71	0xbd11c3de	-0.035587184
72	0x3e15b029	0.14617981
73	0x3c40422e	0.0117345285
74	0x3d4a8aa9	0.049448643
75	0x3b4513f7	0.0030071714
76	0x3c059f31	0.00815563
77	0xbde17416	-0.1100847
78	0xbdabca46	-0.0838819
