Part-2/Lab 2 - Neural Networks/8gram.pth (torch, 87482 bytes, 5 tensors)

embeddings.weight f4 [79, 10]
0	0xbf48f6f7	-0.7850184
1	0x3f32b80e	0.69812095
2	0x3fa9f8ad	1.3279015
3	0xbf41a125	-0.7563651
4	0x3f0e9b12	0.5570537
5	0xbf8b9671	-1.0905286
6	0xbe5a7ba7	-0.21336232
7	0xbf69f74e	-0.9139298
8	0x3f8e2921	1.1106302
9	0xbfdaf8ee	-1.7107217
10	0xbeb0da22	-0.34541422
11	0xbfce945d	-1.6139027
12	0xbd117e38	-0.035520762
13	0xc0028a85	-2.0397046
14	0xbd5e4679	-0.054266427
15	0x3e79bfd8	0.24389589
16	0xbe81b479	-0.25333002
17	0xbec78427	-0.38968012
18	0xbfff5f35	-1.995093
19	0x3fe8a945	1.8176657
20	0x3fd4b0c0	1.661644
21	0x400868b3	2.1313903
22	0xbe81bd2b	-0.25339636
23	0xbe3f534d	-0.1868412
24	0x3f49ecfd	0.7887724
25	0x3f0f4811	0.5596934
26	0x3ed67ae9	0.41890648
27	0x3fc89e61	1.5673333
28	0xbead1c91	-0.33810857
29	0xbf5f2388	-0.8716359
30	0xbfa05bb9	-1.2527992
31	0x3ef6786d	0.48138753
32	0xbf0c68e5	-0.54847556
33	0xbfd0764c	-1.6286101
34	0x3ebb6ea9	0.36607864
35	0x3de8e842	0.11372425
36	0x3e2674f9	0.16255559
37	0x3ed93505	0.42423263
38	0xbe25ab6e	-0.16178676
39	0x3e2b8ea5	0.16753633
40	0xbf840ed7	-1.0317029
41	0xbf8053e4	-1.0025601
42	0xbe264f6c	-0.16241235
43	0x3fb243ed	1.3926979
44	0xc00367bf	-2.0532072
45	0x3ea899e0	0.32929897
46	0xbe87ac0c	-0.2649845
47	0x400262dc	2.037284
48	0x3ee03292	0.43788582
49	0xbdaa234e	-0.08307515
50	0xbfe3dc6f	-1.7801646
51	0xbf82e910	-1.0227375
52	0x3f93d7b8	1.1550207
53	0xbdb663e0	-0.089057684
54	0xbf4db54f	-0.8035478
55	0xbf0f8013	-0.560548
56	0x3fade171	1.3584424
57	0xbf13d540	-0.5774727
58	0xbdacc28c	-0.08435544
59	0xbea1a9ae	-0.31574768
60	0xbf5f5180	-0.87233734
61	0xbf6f9ef2	-0.93601906
62	0xbf091913	-0.53553885
63	0xbf45bced	-0.772414
64	0x3f1a2aac	0.6022136
65	0xbe0dd960	-0.13852453
66	0x3f3dde30	0.74167156
67	0xbfb01f5b	-1.3759569
68	0xbca786a9	-0.020449953
69	0x3fa4565f	1.2838858
70	0x3d277558	0.040883392
71	0xbe9b7a30	-0.3036666
72	0x3ed129fc	0.40852344
73	0xbf56ceba	-0.8390919
74	0x3e67bddd	0.22631021
75	0xbde7118a	-0.11282642
76	0xbf5bdb26	-0.8588127
77	0xbfa41fea	-1.2822239
78	0x3d7f70be	0.06236338
79	0xbeb3a013	-0.35083064
80	0x3f053544	0.520344
81	0x3faffc34	1.3748841
82	0x3d57b958	0.052666992
83	0x3de5562e	0.11198078
84	0x3b1db102	0.0024061804
85	0xbfdcea82	-1.7259066
86	0xbfe8cb7e	-1.8187101
87	0x3f8e699a	1.1125977
88	0xbe7bbcde	-0.24583766
89	0x3e99c590	0.3003354
90	0x3fb5e01e	1.420902
91	0x3f438107	0.76368755
92	0x3e769a49	0.24082293
93	0x3ed8adca	0.4232009
94	0x3f933321	1.1499978
95	0x3f885cea	1.0653355
96	0xbd840c95	-0.06447712
97	0x3fc5f99e	1.5466802
98	0xbed6acde	-0.41928762
99	0xbe422285	-0.1895848
100	0x3d334e85	0.043776054
101	0x3eaf7fd1	0.34277204
102	0xbfce58ed	-1.6120888
103	0x3ffe6c0f	1.9876727
104	0x3fb2612d	1.3935906
105	0x400d0b59	2.2038176
106	0xbf894a80	-1.072586
107	0x3fba4d7b	1.4554895
108	0xbfa64137	-1.2988652
109	0x3f008a39	0.5021091
110	0xbf43dc6e	-0.76508224
111	0xbf882c38	-1.0638494
112	0x3e8900ff	0.26758572
113	0xbfd3bf72	-1.65428
114	0x3edffb13	0.43746242
115	0xbe970382	-0.29494864
116	0x3fade88d	1.3586594
117	0x3fc27a66	1.5193603
118	0xbf7ecf62	-0.9953519
119	0x3daeaa4b	0.085285746
120	0x3d4fd16e	0.050736837
121	0xbe4a76d7	-0.19771896
122	0xbf3fa13e	-0.7485541
123	0x3ef8d378	0.48598838
124	0x3ec19574	0.37809336
125	0xbf841e20	-1.0321693
126	0x3f1539b3	0.5829117
127	0x3fbc213d	1.4697644
128	0x3f651df7	0.8949885
129	0xbe973cce	-0.29538578
130	0x3dbeb251	0.09311355
131	0x3f3db9c4	0.7411158
132	0xc0100e3f	-2.2508695
133	0x3ee888a7	0.45416757
134	0x3f6e6001	0.9311524
135	0x3eb74649	0.3579581
136	0xbee525d9	-0.44755438
137	0xbf8ffa8c	-1.1248336
138	0xbf431f31	-0.7621947
139	0x3ee2e1b9	0.44312838
140	0xbfe0fae7	-1.7576569
141	0x3e4a38fb	0.19748299
142	0xbda67b96	-0.08129041
143	0xbede3fbf	-0.4340801
144	0x3e71831b	0.23585169
145	0x3e89290c	0.2678913
146	0x3fe5f181	1.7964326
147	0xbb4d368c	-0.003131303
148	0xbf352098	-0.7075286
149	0xbe4ab0b3	-0.19793968
150	0xbf9fa7c8	-1.2473078
151	0xbfae1f08	-1.360322
152	0xbf7c60e4	-0.98585343
153	0x3fb07972	1.3787062
154	0xbe257db0	-0.16161227
155	0xbf80f88b	-1.0075849
156	0x3edcd0fb	0.4312819
157	0xbfcf73d6	-1.6207225
158	0x3faa08c8	1.328393
159	0xbfd1cf02	-1.6391299
160	0xbfcdf762	-1.609112
161	0x3f6befe8	0.9216294
162	0xbe50601b	-0.20349161
163	0x3f878220	1.0586586
164	0x3e9a9512	0.30191857
165	0x3e2b3bfc	0.16722101
166	0x3f35c1f1	0.70999056
167	0xbdf82cbd	-0.12117908
168	0xbf8d4b32	-1.1038573
169	0xbf15185b	-0.5824029
170	0x3f0eb085	0.557381
171	0x3f4e3920	0.80555916
172	0x3f78e750	0.97227955
173	0xbf4a5f57	-0.7905173
174	0xbf2fbdfb	-0.6864926
175	0xbe8b56b6	-0.27214593
176	0x3f50b795	0.81530124
177	0x3f252cb3	0.6452133
178	0x3e725813	0.2366641
179	0x3e0eb415	0.13935883
180	0x3f85802c	1.042974
181	0xbe8cd752	-0.27508026
182	0x3f01dcea	0.50727713
183	0xbf6eb8e4	-0.9325087
184	0x3f8103bc	1.0079265
185	0x3faabe61	1.3339349
186	0xbf9c1f63	-1.2197078
187	0xbe70190e	-0.23447058
188	0x3f1beb05	0.60905486
189	0x3f755efe	0.9584807
190	0x3e9cb571	0.3060718
191	0x3f8690a9	1.0512897
192	0x3fa8fffb	1.3203119
193	0xbf89076e	-1.0705392
194	0x3f92a676	1.145705
195	0xbf34365e	-0.7039546
196	0x3edb8fa4	0.42883027
197	0xbf8a4c51	-1.080454
198	0xbdc1c82c	-0.09462008
199	0xbf334451	-0.7002612
200	0x3fbce8f5	1.4758593
201	0xbeb2a697	-0.34892723
202	0x3f93f95a	1.1560471
203	0x3f246121	0.64210707
204	0xbf5b2db7	-0.8561663
205	0xbfe95815	-1.8230006
206	0x4026315b	2.5967624
207	0xbf4492b0	-0.7678633
208	0x401751cf	2.3643682
209	0x3e77c4a7	0.2419611
210	0x3e7aa3e8	0.24476588
211	0x3e742996	0.23843989
212	0xbf91cc20	-1.1390419
213	0xbf2ef65a	-0.6834465
214	0x3f60931e	0.87724483
215	0x3f4f83b2	0.81060326
216	0x402cf86a	2.702662
217	0x3eba2a46	0.36360377
218	0x3f879ce1	1.0594751
219	0xbf219435	-0.6311677
220	0x3f0fa1ab	0.5610606
221	0xbeb96916	-0.36212987
222	0x3f0466b3	0.51719207
223	0x3eefeead	0.46861783
224	0xc02cf9ed	-2.7027543
225	0x3e5e3289	0.21698965
226	0xbffe86d9	-1.9884902
227	0x3fb235f3	1.3922714
228	0xbe852d63	-0.2601119
229	0xbf70e52e	-0.940997
230	0x3e4676da	0.19381276
231	0x3f23e32e	0.64018524
232	0xbf6a2982	-0.91469586
233	0x3e551285	0.20807846
234	0xbeaf79f1	-0.3427272
235	0xbe872608	-0.26396203
236	0x3f2cd7b4	0.67516637
237	0xbf8dee44	-1.1088338
238	0x3f735ff2	0.95068276
239	0x3f228842	0.6348916
240	0xbf767868	-0.96277475
241	0xbe47d02d	-0.19513007
242	0x3e20ccdc	0.15703148
243	0xbf2eb326	-0.6824211
244	0x3f4ccc48	0.7999921
245	0x3fcee238	1.6162786
246	0xbf27df07	-0.6557469
247	0xbf723fb5	-0.9462846
248	0x3fd4439b	1.6583132
249	0x3f6a82fb	0.9160611
250	0xbf8a7c6f	-1.0819224
251	0xbf4b9f74	-0.7954018
252	0xbf59fca0	-0.851511
253	0xbf830122	-1.0234721
254	0x3f01e67a	0.50742304
255	0x3e92133f	0.2853031

linear1.weight f4 [128, 80]
0	0xbb5c0ccb	-0.003357696
1	0xbd8c0fd0	-0.068389535
2	0xbd66d2ba	-0.05635331
3	0x3d9354ba	0.07193895
4	0x3c849912	0.01618627
5	0xbd096c47	-0.033550527
6	0xbcd0d5e8	-0.025492623
7	0xbd111d33	-0.035428237
8	0xbd20718b	-0.039170783
9	0xbd85d78c	-0.06535253
10	0xbd95903e	-0.07302903
11	0xbca2bc24	-0.019865103
12	0x3db52526	0.08844976
13	0xbdc19893	-0.09452929
14	0x3e0123e4	0.12611347
15	0xbe06d102	-0.13165668
16	0xbdb50ed0	-0.08840716
17	0x3d88557b	0.06656929
18	0x3b31dd35	0.0027139906
19	0xbe104bfe	-0.14091489
20	0x3e033b02	0.12815478
21	0x3d7f3e76	0.062315427
22	0xbc592971	-0.013254509
23	0x3d1ba270	0.03799671
24	0xbd54ed43	-0.051984083
25	0xbe098fd2	-0.1343377
26	0x3d1493be	0.03627371
27	0x3d9e78da	0.07737894
28	0xbcb5ef8a	-0.022208948
29	0x3cf7683a	0.030201066
30	0xbe007fad	-0.12548704
31	0xbdd5229b	-0.10406991
32	0x3cacf280	0.021111727
33	0xbbc8b6c9	-0.0061253053
34	0xbd8eb86f	-0.06968772
35	0x3e1049f0	0.14090705
36	0xbe172562	-0.14760354
37	0xbdeaf358	-0.114721954
38	0x3d9fa9dc	0.0779607
39	0x3d33ecf6	0.043927155
40	0x3d02d6eb	0.031943243
41	0x3c4e2552	0.01258214
42	0xbd9236eb	-0.07139381
43	0xbc377dba	-0.011199409
44	0xbdcb6935	-0.09932176
45	0x3d052c72	0.03251309
46	0x3dca3138	0.09872669
47	0x3df18377	0.11792653
48	0xbd83f877	-0.06443875
49	0x3bc1bb19	0.0059121964
50	0xbdaaea9e	-0.08345531
51	0x3daa37d6	0.08311431
52	0x3ddaa0ee	0.10675226
53	0xbe13f755	-0.14449818
54	0x3db55216	0.08853547
55	0x3cf9fe78	0.030516848
56	0x3bad4655	0.0052879252
57	0xbdfdc027	-0.12390166
58	0x3b9b335c	0.004736347
59	0x3de52f96	0.11190717
60	0x3d66f690	0.056387484
61	0x3d338910	0.043831885
62	0xbe09e989	-0.13467993
63	0xbd951802	-0.0727997
64	0x3d0951b7	0.033525195
65	0x3d465c48	0.04842785
66	0x3be7b9d6	0.007071714
67	0xbe4af385	-0.19819458
68	0x3c0fa2d8	0.008766852
69	0x3df62d50	0.120203614
70	0xbdb57675	-0.088604845
71	0x3d36a7ca	0.04459361
72	0x3e3b8221	0.18311359
73	0x3e048872	0.12942675
74	0x3dff4fcb	0.12466391
75	0xbe3799f1	-0.17929818
76	0x3e136e90	0.14397645
77	0x3cbb8a09	0.022892969
78	0x3e120f82	0.14263728
79	0xbd805074	-0.06265345
80	0x3da8ade3	0.08236291
81	0x3cd0e54a	0.025499959
82	0xbc8015a2	-0.015635315
83	0xbde8fea4	-0.11376694
84	0xbda2abe7	-0.07942944
85	0x3c05f0fc	0.008175131
86	0xbdc17d13	-0.09447684
87	0x3be0ca22	0.0068600336
88	0xbcf3a152	-0.02974001
89	0x3d3bde4d	0.0458663
90	0x3df47f1f	0.11938309
91	0xbb8eaea4	-0.004354315
92	0xbe03e594	-0.12880546
93	0x3ccef66f	0.025263993
94	0x3d9f06b9	0.07764954
95	0xbd024bc5	-0.03181054
96	0x3b201862	0.0024428596
97	0x3de60703	0.11231806
98	0x3da6a535	0.081369795
99	0xbd388f34	-0.045058444
100	0x3df6db66	0.12053566
101	0xbd985bfe	-0.07439421
102	0xbcf872ae	-0.030328121
103	0xbcea3a7b	-0.028592339
104	0xbd832431	-0.06403387
105	0x3d4362ff	0.047701832
106	0x3cdb7436	0.026788812
107	0x3d18efce	0.03733807
108	0xbd4a23f5	-0.049350698
109	0xbe05f0ee	-0.13080189
110	0x3d4d0028	0.050048977
111	0x3d466fd0	0.048446476
112	0xbc3fd8ed	-0.011709434
113	0x3b88a586	0.0041701226
114	0x3dfcf1cd	0.12350807
115	0x3d9d7a0a	0.07689293
116	0x3dcd255f	0.100168936
117	0xbd8ea7a6	-0.0696557
118	0x3dc173df	0.09445929
119	0xbd481882	-0.048851497
120	0x3aa0bf2f	0.0012264008
121	0x3c39c1b3	0.011337685
122	0x3b8d6524	0.0043150354
123	0x3b27f293	0.0025626763
124	0x3bbb0e77	0.0057085115
125	0xbd1d04af	-0.038334545
126	0x3b77bbb4	0.0037801089
127	0xbc4789ac	-0.01217882
128	0x3df28a98	0.11842841
129	0xbda4cc11	-0.08046735
130	0x3d92635b	0.07147857
131	0x3d89e003	0.0673218
132	0x3e1fd865	0.15609892
133	0xbd3af111	-0.045640055
134	0xbb2667aa	-0.0025391378
135	0xbdc9752b	-0.09836801
136	0x39ec48f6	0.00045067788
137	0xbd2214e0	-0.03957069
138	0x3d9b8e0c	0.07595453
139	0xbe0d6aeb	-0.13810317
140	0x3c8a5455	0.016885916
141	0x3d570b33	0.052500915
142	0x3c41ee01	0.01183653
143	0x3def1e43	0.11675694
144	0x3db14369	0.086554356
145	0xbd3f090f	-0.0466395
146	0x3dd1ad2b	0.10238107
147	0x3d5835e8	0.052785784
148	0x3d56f638	0.052480906
149	0x3ac587c1	0.0015070365
150	0xbd948557	-0.07251995
151	0xbc2ae16d	-0.010429722
152	0x3e10d719	0.14144553
153	0xbd84b4e4	-0.06479815
154	0x3d60c2f3	0.054873418
155	0xbd8cf84f	-0.068832986
156	0xbcf12603	-0.02943707
157	0xbba66f65	-0.005079197
158	0x3db7c40c	0.0897294
159	0x3d067224	0.032823697
160	0xbd7e326a	-0.062059797
161	0x3b8b5d6d	0.0042530806
162	0xbd3e3f5c	-0.046447143
163	0xbe071850	-0.13192868
164	0x3cf7b5f6	0.030238133
165	0x3c4d4ff3	0.012531268
166	0xbe0ff823	-0.140595
167	0xbd3f4bee	-0.04670327
168	0x3e588a84	0.2114659
169	0x3ddaa19f	0.10675358
170	0x3dd92862	0.106034055
171	0xbdaf55b1	-0.08561266
172	0x3d963d00	0.073358536
173	0xbe03adf4	-0.12859327
174	0xbde120c7	-0.1099258
175	0xbd970d0f	-0.073755376
176	0x3cf87269	0.030327993
177	0x3d5a878a	0.053351916
178	0x3db1c889	0.08680827
179	0xbda85419	-0.08219165
180	0xbda41e6c	-0.08013615
181	0x3dad6342	0.084661976
182	0x3b5630cb	0.0032682891
183	0xbd789bec	-0.060695574
184	0x3e1034d0	0.14082646
185	0x3cf1a9ce	0.029499914
186	0x3d9ffa3a	0.07811399
187	0x3e398761	0.18118049
188	0x3b9b2bdc	0.004735453
189	0xbe1a6b67	-0.15080033
190	0xbe58291f	-0.21109436
191	0x3cd3f5b3	0.025873994
192	0x3df040e0	0.11731124
193	0xbcb4ceb0	-0.022071213
194	0xbd8bc0b1	-0.06823862
195	0x3d53b9e1	0.05169094
196	0xbce4c504	-0.027925976
197	0x3d1ba3c0	0.03799796
198	0xbd06d811	-0.0329209
199	0xbda8e4ce	-0.08246766
200	0x3c4ae8e2	0.012384625
201	0x3b9a481b	0.0047083027
202	0xbd530ca0	-0.051525712
203	0xbe29d0db	-0.16583578
204	0x3dabe289	0.083928175
205	0xbd50c0e3	-0.0509652
206	0x3c0b37d8	0.008497201
207	0xbda45674	-0.08024302
208	0x3dd2a1db	0.10284778
209	0x3d3cb263	0.04606856
210	0xbdb33882	-0.087510124
211	0xbcea9991	-0.02863768
212	0x3df30364	0.11865881
213	0xbd2921bf	-0.04129195
214	0x3d210446	0.039310716
215	0xbe239262	-0.1597381
216	0x3e00e345	0.12586696
217	0xbdadcd09	-0.08486373
218	0xbd1e3388	-0.038623363
219	0x3c42e4f1	0.011895404
220	0xbe3379ba	-0.17526904
221	0xbd6c1085	-0.05763294
222	0x3d8f85bf	0.07007932
223	0x3dfdf176	0.12399571
224	0x3e37896d	0.17923518
225	0x3df1651b	0.117868625
226	0x3cdea1c6	0.027176749
227	0xbda0de58	-0.07854909
228	0xbd8ba9b5	-0.068194784
229	0x3e10e5f0	0.14150214
230	0xbe3e8320	-0.18604708
231	0x3cfb68f4	0.030689694
232	0x3d5982b0	0.05310315
233	0x3cbaf34d	0.022821093
234	0x3e056309	0.1302606
235	0xbe197ad1	-0.14988257
236	0x3e225ee9	0.15856518
237	0xbdec72c9	-0.11545331
238	0x3e01621f	0.12635086
239	0xbd894ccb	-0.067041
240	0x3db3bc79	0.08776183
241	0x3d05cca1	0.032665852
242	0x3e01e31e	0.12684295
243	0x3e0115c1	0.12605955
244	0x3dec5919	0.115404315
245	0x3d0e7e7b	0.03478859
246	0x3c9e426e	0.019318786
247	0x3e12f660	0.14351797
248	0xbccd44c7	-0.02505721
249	0x3d9d4d6e	0.07680784
250	0xbc846e25	-0.016165802
251	0xbd84c70b	-0.06483277
252	0xbe208db5	-0.15679057
253	0xbdd033d5	-0.10166136
254	0xbdf11834	-0.117721945
255	0x3cfa35b5	0.030543188

linear1.bias f4 [128]
0	0xbd00f4c3	-0.031483423
1	0xbd5ff9a0	-0.05468142
2	0x3d3ee5af	0.046605762
3	0x3ca2ca9e	0.019872006
4	0x3e56126b	0.20905463
5	0x3d418eef	0.047255453
6	0x3e36e3d9	0.17860354
7	0x3d8c7d43	0.06859829
8	0x3db567a8	0.088576615
9	0x39f4b2ef	0.00046672623
10	0x3e04733c	0.12934583
11	0x3e50ad09	0.20378508
12	0x3e2775d8	0.16353548
13	0x3c260897	0.010133884
14	0x3dd48986	0.10377793
15	0xbd5c8131	-0.053834144
16	0xbd913ca7	-0.07091647
17	0x3e4078ea	0.18796125
18	0x3e642c66	0.22282562
19	0x3d6a8873	0.057259034
20	0xbc95fe17	-0.018309636
21	0xbbb54332	-0.005531692
22	0x3d13b147	0.036057737
23	0x3e13d01c	0.14434856
24	0x3de93462	0.11386944
25	0xbcefbd00	-0.029264927
26	0x3dae98d3	0.08525243
27	0x3e0d602a	0.13806215
28	0x3e2b98f2	0.16757563
29	0xbba7f1e8	-0.005125273
30	0x3e26c738	0.16286933
31	0x3e39805e	0.18115374
32	0x3cbda6e4	0.023150869
33	0xbd617f55	-0.055053074
34	0xbb5ab22d	-0.0033370361
35	0xbce4dd24	-0.02793748
36	0x3e273d8c	0.16332072
37	0x3d9e746c	0.077370495
38	0x3d5a6eb8	0.053328246
39	0x3d95a042	0.073059574
40	0x3d816f49	0.06320054
41	0x3e038c55	0.12846501
42	0x3e25dbdb	0.1619715
43	0x3ddeba8a	0.10875423
44	0x3dbdef40	0.09274149
45	0x3dcc31a6	0.09970407
46	0x3cdd2d77	0.026999218
47	0x3e5f5d2b	0.21812885
48	0xbce98403	-0.02850533
49	0x3cf13a4f	0.029446749
50	0x3e33d767	0.17562638
51	0x3dc0da54	0.09416643
52	0x3e44d954	0.19223529
53	0x3e0cc1c1	0.13745786
54	0x3e2caa37	0.16861807
55	0x3d2037b9	0.03911564
56	0xbd21dea3	-0.039518964
57	0x3e40648f	0.1878836
58	0x3e197f9a	0.14990082
59	0x3e42a140	0.19006824
60	0x3d3984a9	0.04529253
61	0x3de4cbe2	0.111717
62	0x3db923ee	0.09040056
63	0x3e014b8d	0.12626477
64	0x3d807622	0.06272532
65	0x3e2f785b	0.17135756
66	0x3cf2afe2	0.029624883
67	0x3e1a0540	0.15041065
68	0x3d41f753	0.047355007
69	0x3e25d44b	0.16194265
70	0x3d049779	0.032371018
71	0x3e329714	0.17440444
72	0xbc3f4d52	-0.011676149
73	0x3df16ba9	0.11788113
74	0xbd5514e5	-0.05202188
75	0x3dabc50b	0.08387192
76	0xbcb73f78	-0.022369131
77	0x3dc24190	0.09485161
78	0x3dcf9495	0.10135762
79	0x3e0a0c7b	0.13481323
80	0x3dbcd5dc	0.09220478
81	0x3df722e1	0.120671995
82	0x3b9e5d01	0.0048328643
83	0x3dff17ec	0.124557346
84	0x3cd917f1	0.026500674
85	0x3e126199	0.14295043
86	0x3e170d81	0.14751245
87	0xbd24d078	-0.040237874
88	0x3d983bf9	0.07433314
89	0x3da3ba1a	0.079944804
90	0x3da57aff	0.080801
91	0x3e3010aa	0.17193857
92	0x3e1c48b9	0.15262116
93	0xbc16ea70	-0.009211168
94	0x3e1a8482	0.1508961
95	0x3d0ebf66	0.0348505
96	0xbcb4f781	-0.022090675
97	0x3d8e1925	0.0693839
98	0x3c954e2d	0.018225754
99	0x3df09f38	0.117491186
100	0x3d91bcef	0.07116114
101	0x3d5cc108	0.053895026
102	0x3e0d0da8	0.1377474
103	0x3b452c5d	0.0030086257
104	0x3de077fb	0.109603845
105	0x3e316697	0.17324291
106	0x3e0080eb	0.12549178
107	0x3dfb45e3	0.12269189
108	0x3ddba446	0.10724692
109	0x3de55380	0.11197567
110	0xbd73e9d6	-0.059549175
111	0x3c252f56	0.010082087
112	0x3d50e9f1	0.051004354
113	0x3e281f0d	0.16418095
114	0x3d43628b	0.0477014
115	0x3c1bff1b	0.009521271
116	0x3e3c53e8	0.18391383
117	0x3de2863e	0.11060761
118	0xbcf7e47a	-0.030260313
119	0x3e43aba5	0.19108446
120	0x3df6d1e5	0.12051753
121	0x3e13a308	0.1441766
122	0x3e0552ee	0.13019916
123	0xbc64780b	-0.013944636
124	0x3e02edd0	0.12786031
125	0x3dbd3053	0.09237733
126	0x3e23453e	0.15944383
127	0x3d13bf9a	0.036071397

linear2.weight f4 [79, 128]
0	0xbb9fd61e	-0.0048778197
1	0x3e22e066	0.15905914
2	0x3defc8c3	0.11708214
3	0x3d877c95	0.06615559
4	0xbe4a53ec	-0.19758576
5	0xbd3f95be	-0.046773665
6	0x3e246644	0.16054636
7	0x3d9125c3	0.070872806
8	0xbdc9b3c0	-0.09848738
9	0x3d74c1a2	0.059754975
10	0x3d0adf87	0.03390458
11	0xbc208a26	-0.009798562
12	0x3db01328	0.08597404
13	0x3c93b6cf	0.018031506
14	0x3d0018df	0.03127372
15	0xbd974f79	-0.07388205
16	0xbddb411c	-0.10705778
17	0x3e908501	0.28226474
18	0xbd065a9b	-0.03280125
19	0x3d7c401b	0.061584573
20	0xbe155092	-0.14581516
21	0x3d6e2dd7	0.058149185
22	0x3d50aa05	0.050943393
23	0x3e86e4b9	0.26346377
24	0x3d21da46	0.039514802
25	0x3e0c0bad	0.13676329
26	0x3e87ce35	0.2652451
27	0xbc2c71b2	-0.010525154
28	0x3dad5146	0.08462767
29	0x3e5e2417	0.21693455
30	0x3de7d34a	0.11319597
31	0x3ea1e3e4	0.3161918
32	0x3eb4511c	0.35218132
33	0xbcc2ada8	-0.023764446
34	0xbd08b583	-0.033376228
35	0xbe142fb3	-0.14471321
36	0xbdbf68bc	-0.09346148
37	0x3e4dc5aa	0.20094934
38	0x3dccfd7d	0.100092866
39	0x3ccf0f4a	0.025275845
40	0x3e20221f	0.15638016
41	0x3d410942	0.04712797
42	0xbd0f45bd	-0.034978617
43	0xbe0ce706	-0.13760003
44	0x3ea6e338	0.3259523
45	0x3d6164c5	0.055027742
46	0xbe24fae7	-0.16111337
47	0xbe213058	-0.15741098
48	0xbdf40c4f	-0.1191641
49	0xbdc2a75e	-0.09504579
50	0x3d36f05e	0.044662826
51	0x3e75bc0a	0.23997512
52	0xbc24b6d2	-0.010053353
53	0xbe0407f3	-0.12893657
54	0x3c36789b	0.011137153
55	0x3b20da5d	0.0024544217
56	0xbc3f8c24	-0.011691127
57	0x3eb16aee	0.34651893
58	0x3be73f81	0.007057131
59	0x3d9b8ecf	0.07595598
60	0xbc6bfb36	-0.014403155
61	0xbd099036	-0.033584796
62	0xbd8f0326	-0.069830224
63	0xbdb2b841	-0.0872655
64	0x3e2e84ee	0.17042896
65	0xbdf60b44	-0.120138675
66	0xbd78ea38	-0.060770243
67	0xbbb654d0	-0.0055643097
68	0xbd3fb7f5	-0.046806294
69	0x3db7bba0	0.089713335
70	0x3ddfd0ff	0.10928535
71	0xbe727dc8	-0.23680794
72	0x3ec3f5d9	0.38273504
73	0xbe1f661a	-0.15566292
74	0x3d064236	0.032777987
75	0xbe36b531	-0.17842557
76	0x3e13ce02	0.14434054
77	0x3db89e30	0.09014547
78	0xbcc6b733	-0.024257278
79	0xbcb50494	-0.02209691
80	0xbd9d9eb3	-0.07696285
81	0x3e25b801	0.16183473
82	0xbdb6f367	-0.08933144
83	0xbdd1de89	-0.10247523
84	0xbe2df429	-0.16987671
85	0x3d158ef9	0.036513302
86	0x3d972164	0.07379416
87	0x3dff0c8f	0.12453567
88	0xbdf0c1f1	-0.117557414
89	0xbd60ea67	-0.054911043
90	0xbdfbfa6a	-0.12303622
91	0x3dab9910	0.08378804
92	0x3e85fcfa	0.26169568
93	0x3de33daf	0.110957496
94	0x3e09347d	0.13398929
95	0x3da42813	0.08015456
96	0x3d92ef17	0.07174509
97	0x3ccdabdd	0.025106365
98	0x3df90d9e	0.121608004
99	0x3e4cdcdc	0.20006126
100	0xbdcd6a1c	-0.100300044
101	0xbcedaeb5	-0.02901397
102	0x3dfad4be	0.122476086
103	0xbdd9aa04	-0.10628131
104	0xbd9c11ae	-0.0762056
105	0xbd9f7f84	-0.077879936
106	0xbe7c12b9	-0.24616517
107	0xbc188cc4	-0.009310905
108	0x3c42cf16	0.011890193
109	0x3dd028a0	0.101639986
110	0x3e66c466	0.22535858
111	0xbca0d933	-0.019634819
112	0xbdc0bae9	-0.0941065
113	0x3e34f284	0.17670637
114	0x3e3444be	0.17604348
115	0xbe014d0b	-0.12627046
116	0x3ea24492	0.3169294
117	0x3e3a7c85	0.18211563
118	0x3d38c473	0.045109224
119	0x3e84d4ee	0.25943702
120	0xbe4fa3cf	-0.20277332
121	0xbd8c48c9	-0.0684982
122	0x3dd15f1b	0.10223218
123	0xbd77d5a2	-0.06050647
124	0xbdc3b5d0	-0.09556162
125	0xbd1fafbe	-0.03898596
126	0x3ef549ef	0.4790797
127	0x3c90c28a	0.017670888
128	0xbcbbe1df	-0.022934852
129	0xbcb38f21	-0.021918835
130	0xbcf0aaf4	-0.029378392
131	0x3caa9930	0.020824999
132	0xbd9a6f29	-0.07540733
133	0xbc350d70	-0.011050567
134	0x3b890e77	0.0041826325
135	0x3d1f6a00	0.03891945
136	0xbc979cd1	-0.018507393
137	0x3d4596c8	0.0482395
138	0xbdaa162d	-0.08305011
139	0xbd7d50b2	-0.061844535
140	0xbc708437	-0.01467996
141	0x3c6fe03b	0.014640863
142	0xba76035f	-0.00093846576
143	0x3d539945	0.05165984
144	0xbc91bcaa	-0.017790157
145	0xbd79cc7d	-0.06098603
146	0xbd238008	-0.039917022
147	0xbd90dfee	-0.07073961
148	0xbdc05ffe	-0.09393309
149	0x3d752cff	0.059857365
150	0xbd14b7d3	-0.03630812
151	0xbdad6e44	-0.08468297
152	0xbd6ce0df	-0.05783164
153	0xba1339cf	-0.0005616219
154	0xbd69c8fc	-0.05707644
155	0x3ce04e4f	0.02738109
156	0x3d5748f4	0.052559808
157	0x3c5d875a	0.01352104
158	0xbcc8cd55	-0.024511972
159	0x3c8862f5	0.016648749
160	0x3d183bda	0.037166454
161	0xbdaa982c	-0.08329806
162	0xbd8c618e	-0.068545446
163	0xbd23b275	-0.03996511
164	0xbdb4eabb	-0.08833834
165	0xbd94d2c5	-0.072667636
166	0x3d897c0f	0.067131154
167	0x3cf1251a	0.029436637
168	0xbdaac3f4	-0.08338156
169	0x3c150dd6	0.009097537
170	0xbc652fda	-0.0139884595
171	0x3c11c228	0.008896388
172	0xbdad7d52	-0.084711686
173	0xbd0efca5	-0.03490891
174	0xbd6a19bd	-0.057153452
175	0xbda990e7	-0.08279591
176	0xbd3cc68a	-0.04608778
177	0xbd736154	-0.05941899
178	0xbd430739	-0.04761431
179	0x3d94281e	0.07234214
180	0x3d4d4bdf	0.050121184
181	0x3b728b61	0.0037009346
182	0x3bfdb5d6	0.007742624
183	0xbd4b2ada	-0.049601413
184	0xbd94aa4c	-0.07259044
185	0xbc68cadf	-0.0142085245
186	0xbd71b6f0	-0.059012353
187	0xbda6aaec	-0.081380695
188	0x3c9cb326	0.019128393
189	0xbd112c07	-0.03544238
190	0xbdad128c	-0.08450803
191	0xbd22468a	-0.039618053
192	0x3d08fa56	0.033441864
193	0xbd4c4dd8	-0.049878925
194	0xbdb1ec1d	-0.08687613
195	0xbda9212d	-0.08258281
196	0xbd119f41	-0.035552267
197	0x3d8f57b5	0.06999151
198	0x3d5b4fc9	0.053542886
199	0x39486c12	0.00019113746
200	0xbd349ec3	-0.04409672
201	0xbdc47035	-0.09591714
202	0x3d278ca9	0.04090563
203	0x3bf36d62	0.007428811
204	0xbc512e7b	-0.012767429
205	0x3ca77e16	0.020445865
206	0xbd7a533c	-0.061114535
207	0x39cfa9e6	0.000396087
208	0xbd377561	-0.044789676
209	0x3c946d10	0.018118411
210	0x3c46e529	0.012139597
211	0x3d6fe209	0.058565173
212	0xbcc85749	-0.024455683
213	0xbbf25d83	-0.0073964014
214	0xbd75ad50	-0.059979737
215	0x3d0b6f1f	0.03404152
216	0x3d87030f	0.0659238
217	0xbdc901f8	-0.09814829
218	0xbc4631dc	-0.012096848
219	0x3d256631	0.04038066
220	0xbd8cb1b8	-0.06869835
221	0x3ce0caec	0.02744051
222	0xbc8e14d3	-0.017343914
223	0x3cd5df84	0.026107557
224	0xbcb35a0e	-0.021893527
225	0x3d45adfd	0.04826163
226	0x3c8c7eb6	0.017150264
227	0xbd8f4272	-0.06995095
228	0xbc60fb85	-0.013731842
229	0xbd62f401	-0.05540848
230	0x3d7a7e3d	0.061155546
231	0x3c18085b	0.009279336
232	0x3d237e61	0.039915446
233	0xbd5b4ef1	-0.05354208
234	0x3d8d1021	0.06887842
235	0xbd56a138	-0.052399844
236	0x3ca3341e	0.019922312
237	0xbcd1a45a	-0.025591064
238	0xbd2a9440	-0.04164529
239	0xbda4cdb2	-0.08047046
240	0x3d7e2118	0.06204328
241	0x3c053a78	0.008131616
242	0xbda2f324	-0.07956532
243	0xbb61ad9b	-0.0034435752
244	0xbd090e67	-0.033461
245	0x3d920da7	0.0713151
246	0x3c2ed96c	0.010671955
247	0x3cd3c1b0	0.025849193
248	0xbb4b8d8c	-0.003105971
249	0xbb8065b8	-0.003918376
250	0x3d939778	0.07206625
251	0xbd6f5936	-0.058434688
252	0x3d93fa98	0.07225531
253	0xbdc6ca40	-0.09706545
254	0x3c9870d3	0.018608486
255	0x3d768ba6	0.060191773

linear2.bias f4 [79]
0	0x3d4d3cce	0.050106816
1	0xbd188cd4	-0.03724368
2	0x3e03cb4d	0.12870522
3	0x3e17da2b	0.14829318
4	0xbc8c0bb2	-0.01709542
5	0x3c1b3450	0.0094729215
6	0xbdb5e438	-0.0888142
7	0x3da915d5	0.08256117
8	0x3cb6708d	0.022270465
9	0x3cb6d6f0	0.022319287
10	0x3e23bbd7	0.15989624
11	0xbd443a5a	-0.04790721
12	0xbce2f739	-0.027705776
13	0xbc34cf7c	-0.011035796
14	0xbd196460	-0.03744924
15	0xbb616dc5	-0.0034397703
16	0xbdf76fcc	-0.120818704
17	0x3deddd33	0.11614456
18	0x3db11c26	0.08647947
19	0xbcf97f5c	-0.030456237
20	0xbdf208c8	-0.11818081
21	0xbbfc9c11	-0.0077090343
22	0x3d8070c2	0.06271507
23	0x3a404e71	0.00073359074
24	0x3d9b2f5e	0.07577394
25	0x3da5297f	0.080645554
26	0x3dd70edc	0.10500881
27	0xbd94dd12	-0.07268728
28	0x3def92cf	0.116979234
29	0x3cbcb3f1	0.023035021
30	0x3c2f3ed3	0.010696131
31	0xbd146d8a	-0.036237277
32	0x3c72a00c	0.014808666
33	0xbb258737	-0.0025257596
34	0xbce3352f	-0.02773532
35	0xbc982497	-0.018572135
36	0xbd5aead2	-0.0534466
37	0xbdd2213b	-0.102602445
38	0x3cb4c538	0.022066697
39	0x3b3cb8e4	0.0028796727
40	0x3dd81f08	0.10552794
41	0x3cceb650	0.025233418
42	0x3cbeb483	0.023279434
43	0xbdc1b842	-0.094589725
44	0xbd480ba8	-0.04883924
45	0xbca2d058	-0.019874737
46	0x3e0934b2	0.13399008
47	0x3dcb16df	0.09916472
48	0x3d39e81b	0.04538737
49	0x3dbc6201	0.0919838
50	0x3d1de22e	0.03854578
51	0xbda5e319	-0.08099956
52	0xbd6e0d31	-0.05811805
53	0x3b97ef04	0.004636647
54	0xbd4ec9e1	-0.050485495
55	0xbd370e45	-0.044691343
56	0xbd2e55b7	-0.042562213
57	0x3cf13cc6	0.029447924
58	0x3c30a5e7	0.010781742
59	0x3c264049	0.010147163
60	0xbd8274a0	-0.06369901
61	0xbdc543d7	-0.0963208
62	0xbd942790	-0.072341084
63	0x3c89ad65	0.016806314
64	0xbdd2af72	-0.1028737
65	0xbd83b770	-0.06431472
66	0xbcdeb950	-0.027187973
67	0x3c4f9505	0.012669806
68	0x3ca74d6a	0.020422656
69	0xbc55da35	-0.013052513
70	0x3bb7c4ed	0.005608192
71	0x3c7cca04	0.015429024
72	0x3dd3ca4d	0.1034132
73	0xbdc673c5	-0.0969005
74	0xbcfcf149	-0.030876772
75	0x3e18a54d	0.14906807
76	0xbdb1962a	-0.0867122
77	0x3a82f8b5	0.0009992333
78	0xbdac11e2	-0.084018484
